hand_gesture_model.tflite (tflite, 62680 bytes, 6 tensors)

arith.constant f4 [21, 64]
0	0x3e294c98	0.16533124
1	0x3dd3f8df	0.10350203
2	0x3e621f97	0.22082363
3	0xbf7c4744	-0.9854624
4	0xbf1750d0	-0.59107685
5	0xbf617363	-0.8806669
6	0x3d0cb3b3	0.034351062
7	0xbf971f05	-1.1806341
8	0xbee701f2	-0.45118672
9	0x3eddd01d	0.4332284
10	0x3cdd1f60	0.0269925
11	0x3d15f270	0.03660816
12	0xbec8e2ed	-0.3923563
13	0x3ddd877c	0.10816857
14	0xbe06f397	-0.1317886
15	0x3e8e4042	0.277834
16	0xbeb2ea2a	-0.34944278
17	0xbed14e4f	-0.40880057
18	0xbc11419c	-0.00886574
19	0xbecbc53a	-0.3979891
20	0x3e10a256	0.14124426
21	0x3e1f39e8	0.15549433
22	0xbdd2f443	-0.103004955
23	0xbe202097	-0.15637432
24	0xbdfb9d98	-0.12285918
25	0x3ea78a62	0.32722765
26	0xbf6b12f2	-0.91825783
27	0x3e6aedb0	0.22942233
28	0x3d835f5c	0.06414673
29	0xbf702425	-0.9380515
30	0x3e31f061	0.17376854
31	0xbf47c9a9	-0.78042084
32	0x3e840067	0.25781557
33	0xbf4edd3e	-0.8080634
34	0xbf80cdc3	-1.0062793
35	0xbf89c2f0	-1.0762615
36	0xbf6110d4	-0.879163
37	0x3e838a0c	0.2569126
38	0xbf03b27a	-0.5144421
39	0x3e124e7d	0.14287753
40	0xbf252f30	-0.6452513
41	0xbf5c0f1d	-0.8596056
42	0x3ed82187	0.4221308
43	0xbf8a53b1	-1.080679
44	0xbd6a3247	-0.057176854
45	0x3dab5195	0.0836517
46	0x3eaf42d4	0.34230673
47	0xbf66c445	-0.90143234
48	0x3db10075	0.08642665
49	0x3f0184cb	0.5059325
50	0xbf586196	-0.84523904
51	0xbf34b4a7	-0.70588154
52	0x3ead4959	0.33845022
53	0x3b54de9c	0.0032481318
54	0x3e201105	0.15631492
55	0x3e845565	0.258464
56	0xbe7d76de	-0.24752375
57	0x3e258846	0.16165265
58	0xbe72ef1b	-0.23724024
59	0xbddf9de5	-0.10918788
60	0x39f267b9	0.00046235116
61	0xbeb92b12	-0.36165673
62	0x3e35d56a	0.17757192
63	0x3c570c20	0.013125449
64	0x3d06a055	0.03286775
65	0xbf6f5f72	-0.93505013
66	0xbd0c8f7c	-0.034316525
67	0xbf950a50	-1.1643772
68	0xbf04067e	-0.51572406
69	0xbf11322f	-0.567172
70	0xbe4dc9cb	-0.20096509
71	0xbefd3037	-0.49450848
72	0xbf9bcb36	-1.217139
73	0xbf1e43a6	-0.61821973
74	0xbf899551	-1.0748693
75	0xbfae0846	-1.3596275
76	0xbeaed07c	-0.34143436
77	0x3eda7a13	0.4267126
78	0x3d7db646	0.061941408
79	0x3e482a3e	0.19547364
80	0x3e0dcfd2	0.13848808
81	0xbf1ae694	-0.60508084
82	0x3e743c81	0.23851205
83	0x3e3ac177	0.18237863
84	0xbeb79acf	-0.35860297
85	0x3e96374b	0.2933906
86	0x3e1098f2	0.14120844
87	0x3e42afdd	0.19012399
88	0xbf8c2ac4	-1.0950551
89	0xbf4f5768	-0.80992746
90	0xbf35419e	-0.7080325
91	0x3b43e263	0.0029889576
92	0x3e8a9f95	0.27074876
93	0x3e15beea	0.14623609
94	0x3d99179f	0.074752085
95	0xbf818420	-1.0118446
96	0x3e2a99e0	0.16660261
97	0xbf2c0a06	-0.67202795
98	0x3e9b3942	0.30317122
99	0x3d69f971	0.05712265
100	0x3dbb97b5	0.09159795
101	0x3df31b1a	0.118704036
102	0x3e1bbc2f	0.15208505
103	0xbf81e16e	-1.0146921
104	0xbe57afeb	-0.21063201
105	0xbf345cc2	-0.7045404
106	0xbf743578	-0.95394087
107	0xbf93896c	-1.1526313
108	0xbf2255d0	-0.6341219
109	0xbed04459	-0.40677145
110	0x3e9a8492	0.30179268
111	0xbeb1828b	-0.3466991
112	0x3e9f2897	0.31085655
113	0x3e343824	0.17599541
114	0xbf8e2921	-1.1106302
115	0xbf90fb9e	-1.1326787
116	0x3eacbf46	0.3373968
117	0x3e046d7c	0.1293239
118	0xbf9964fb	-1.1983942
119	0xbf68c587	-0.909264
120	0xbf706169	-0.93898636
121	0xbf0e89f5	-0.55679256
122	0xbf7914b8	-0.9729724
123	0xbfce85ce	-1.6134584
124	0x3e9def67	0.30846712
125	0xbee6a3c5	-0.4504682
126	0x3ea9391c	0.33051383
127	0x3e7b3848	0.24533188
128	0x3d32efdb	0.043685775
129	0xbf901266	-1.1255615
130	0xbf339027	-0.70141834
131	0xbf0a3958	-0.5399375
132	0x3e9f2266	0.3108093
133	0xbf3d0984	-0.73842645
134	0xbf39ece3	-0.72627085
135	0xbf29e250	-0.6636095
136	0x3eefb958	0.46821094
137	0xbf249942	-0.6429635
138	0xbf2e7ab5	-0.68155986
139	0x3e48dd59	0.19615687
140	0xbf083b36	-0.5321535
141	0x3ebbb223	0.36659345
142	0x3e391a08	0.18076336
143	0x3e53832e	0.2065551
144	0x3deac597	0.114634685
145	0xbefaa31f	-0.48952577
146	0x3e505c8d	0.20347805
147	0x3d90d2a0	0.070714235
148	0x3e7f5a88	0.24936879
149	0xbe2152d1	-0.15754248
150	0x3e198ae9	0.14994396
151	0xbc769acc	-0.015051555
152	0x3eb7257f	0.35770795
153	0xbed89dbd	-0.42307845
154	0xbf81106b	-1.0083135
155	0xbf9f2341	-1.2432634
156	0x3e8ef529	0.27921417
157	0x3d2c41df	0.042055007
158	0xbfa54413	-1.29114
159	0x3ece33f5	0.40274015
160	0xbedf3174	-0.43592417
161	0x3eb8c146	0.36084956
162	0xbef01a35	-0.46894994
163	0x3e5eb41d	0.21748395
164	0xbe1e3617	-0.15450321
165	0x3e32f02f	0.17474435
166	0x3e4cd3b3	0.20002632
167	0xbf22d65f	-0.63608354
168	0x3eaf4e36	0.34239358
169	0xbf09fcc0	-0.5390129
170	0xbf0eda59	-0.5580192
171	0xbeaaf02c	-0.33386362
172	0xbe907ec6	-0.2822172
173	0xbf6baf7a	-0.9206463
174	0x3e8aae61	0.27086166
175	0xbf5c1fe9	-0.8598619
176	0x3e60c869	0.2195145
177	0xbf4af93a	-0.7928654
178	0xbf3a043f	-0.7266273
179	0xbf533b85	-0.82512695
180	0x3ea5ff83	0.32421502
181	0x3cbfa123	0.023392266
182	0xbfa0066f	-1.2501963
183	0xbf9833dd	-1.1890827
184	0xbea1d5d8	-0.31608462
185	0xbf017749	-0.5057264
186	0xbf94c58e	-1.1622789
187	0x3e777353	0.24165086
188	0x3d930b02	0.07179834
189	0xbee5a45e	-0.44851965
190	0x3e73db62	0.23814157
191	0x3e81d666	0.25358886
192	0x3d044778	0.03229472
193	0x3de575d7	0.11204117
194	0x3cc85f67	0.024459554
195	0xbed36515	-0.41288057
196	0x3e6501f2	0.22364023
197	0xbef85a98	-0.48506618
198	0x3e88dda3	0.26731595
199	0xbf086ede	-0.5329417
200	0x3f0b7d45	0.5448802
201	0x3eba3569	0.36368874
202	0xbf988d72	-1.1918166
203	0x3e8382c7	0.25685713
204	0xbf953e6b	-1.1659673
205	0x3dee794a	0.11644228
206	0xbb503b91	-0.0031773786
207	0x3e629c19	0.22129859
208	0xbe082d41	-0.13298513
209	0xbeac2097	-0.33618614
210	0x3d623b2e	0.05523222
211	0xbf908b32	-1.1292479
212	0x3e80f816	0.25189275
213	0xbb69959c	-0.0035642153
214	0x3e982cba	0.29721624
215	0xbfb7f0fb	-1.4370416
216	0x3eb4f7e9	0.3534539
217	0xbf79b3a2	-0.9753972
218	0xbdbbfa12	-0.091785565
219	0xbf8ec926	-1.1155136
220	0x3d138f39	0.03602526
221	0xbfa978c0	-1.3239975
222	0xbec8e627	-0.39238092
223	0x3edadce5	0.42746654
224	0xbcd5bc47	-0.026090754
225	0x3eaf616d	0.34254017
226	0xbecf0eb3	-0.40440902
227	0x3ebb3825	0.36566272
228	0xbf9c1e83	-1.2196811
229	0x3e578654	0.21047336
230	0x3ddc7887	0.10765176
231	0xbf37851f	-0.716875
232	0xbf8692ac	-1.0513511
233	0xbe56a82f	-0.20962594
234	0xbf8646ab	-1.0490316
235	0xbf8080d0	-1.003931
236	0xbf826556	-1.0187175
237	0xbdb4f068	-0.08834916
238	0x3ea936e7	0.330497
239	0xbf53773f	-0.8260383
240	0x3e6d93eb	0.23200957
241	0x3e2569d7	0.16153656
242	0xbf65b757	-0.8973288
243	0xbf1789f7	-0.5919489
244	0x3e2addc5	0.16686161
245	0xbfb076ba	-1.3786232
246	0x3dd93535	0.106058516
247	0x3e687c04	0.22703558
248	0xbec0d265	-0.37660518
249	0x3c9e3774	0.019313551
250	0x3e030c15	0.12797578
251	0x3e6e7f3c	0.23290724
252	0xbfaf5ae0	-1.3699608
253	0xbf0c5c71	-0.54828554
254	0x3e9829f3	0.29719505
255	0x3e0d897d	0.13821979

arith.constant1 f4 [64, 128]
0	0x3dc77a6f	0.09740149
1	0xbec937cc	-0.39300382
2	0x3f17ee75	0.5934823
3	0xbcc4db05	-0.024030218
4	0x3edd56b0	0.432302
5	0xbe86b15d	-0.26307192
6	0xbec24ce9	-0.37949303
7	0x3c47c2f5	0.0121924775
8	0xbe0303d6	-0.12794432
9	0xbe4f8f42	-0.20269492
10	0x3f4b1f33	0.7934448
11	0xbe7873f2	-0.2426298
12	0xbc935744	-0.017985947
13	0x3d9ef325	0.0776122
14	0xbd83b229	-0.06430466
15	0x3e30f62b	0.17281406
16	0x3ee04d3e	0.4380893
17	0x3e724e0d	0.23662587
18	0x3e0619e0	0.13095808
19	0xbde4d46c	-0.11173329
20	0x3dd4894a	0.10377748
21	0xbe4f9a23	-0.20273642
22	0xbd8e2d8a	-0.0694228
23	0xbdec3717	-0.11533945
24	0x3e6fd578	0.23421276
25	0x3e101a20	0.14072466
26	0xbe03a2b0	-0.12855029
27	0x3da49c12	0.080375805
28	0xbf599dbe	-0.8500632
29	0x3e4996b4	0.19686395
30	0xbe2073a0	-0.15669107
31	0x3f02967b	0.51010865
32	0xbea7e7d5	-0.3279406
33	0x3d5b125c	0.053484306
34	0x3f4ae5b1	0.7925673
35	0xbe37ba21	-0.17942096
36	0x3ba4bc5e	0.005027338
37	0x3ee08ddf	0.4385824
38	0xbe1742bf	-0.14771555
39	0x3ef099b9	0.4699228
40	0x3d3a9459	0.04555163
41	0xbe0c61b0	-0.1370914
42	0xbec4e5f8	-0.38456702
43	0x3f8aa52e	1.0831659
44	0x3c0e4596	0.008683583
45	0xbcaf1961	-0.021374406
46	0x3f15c45c	0.58502746
47	0x3e61272e	0.21987602
48	0xbca45aae	-0.02006277
49	0xbbe266bc	-0.0069092195
50	0xbe97c1eb	-0.29640135
51	0xbdac2ec1	-0.08407355
52	0xbdc8bb3e	-0.098013386
53	0xbe0eb07e	-0.13934514
54	0x3e9be94d	0.30451432
55	0x3e0a62ec	0.13514298
56	0xbf033123	-0.5124685
57	0x3f1e89bd	0.6192892
58	0x3cf276a2	0.029597584
59	0x3e28f6ec	0.16500443
60	0xbe3b6571	-0.18300416
61	0xbf320ef4	-0.69554067
62	0x3d30d62b	0.043172996
63	0x3dda69b5	0.10664693
64	0x3df54c85	0.119774856
65	0x3f1c157f	0.609703
66	0x3ec47c4c	0.3837608
67	0x3e99c052	0.3002954
68	0xbc8e1a2e	-0.017346468
69	0xbe416485	-0.18886001
70	0xbd7a7d9f	-0.061154958
71	0x3df322d3	0.118718766
72	0x3bc33274	0.005956942
73	0x3e2980f8	0.16553104
74	0xbd6f2e67	-0.058393862
75	0x3c80b649	0.01571192
76	0x3931a524	0.00016941555
77	0xbc2c1d3b	-0.010505016
78	0x3f3cd56b	0.7376315
79	0xbebe749f	-0.3719835
80	0xbf5f5ee6	-0.8725418
81	0x3d2d37d0	0.042289555
82	0xbe949850	-0.29022455
83	0x3d293a10	0.04131514
84	0x3f159492	0.58429825
85	0x3ddd80a8	0.10815555
86	0xbd28d0a9	-0.04121462
87	0xbe9de07f	-0.3083534
88	0xbe07a7c0	-0.13247585
89	0xbf0e04ed	-0.55476266
90	0xbba25d93	-0.0049550026
91	0x3de1e224	0.11029461
92	0x3c9a2230	0.01881513
93	0xbdbcc739	-0.09217686
94	0xbcdaffc5	-0.026733289
95	0xbd6557f5	-0.055992085
96	0xbd319a1a	-0.043359853
97	0x3d25c359	0.0404695
98	0x3f18b20d	0.59646684
99	0x3e207366	0.15669021
100	0xbe8c1253	-0.2735773
101	0xbe9496c6	-0.2902128
102	0xbe343e8c	-0.17601985
103	0xbda408cf	-0.080094926
104	0xbd788254	-0.060671166
105	0xbe5fb177	-0.21845041
106	0x3ef916fe	0.48650354
107	0x3f8f40e8	1.1191683
108	0xbe117b35	-0.14207156
109	0x3e139f06	0.14416131
110	0xbeb59c5f	-0.35470864
111	0x3f754868	0.9581361
112	0xbdb819e4	-0.08989313
113	0x3e87c5ea	0.26518184
114	0xbf05e89a	-0.52308047
115	0x3d639c74	0.055569127
116	0xbd3ae64a	-0.045629777
117	0xbd036527	-0.03207889
118	0x3e79ebd7	0.24406372
119	0x3ec8e1aa	0.39234668
120	0xbf2d1b31	-0.67619616
121	0x3de62b92	0.11238779
122	0x3d9ffd52	0.07811989
123	0x3cb71468	0.022348598
124	0xbe27e89e	-0.1639733
125	0xbda2afd8	-0.07943696
126	0x3f3ff8d0	0.7498903
127	0x3e4b7773	0.19869785
128	0x3f31e610	0.6949167
129	0xbef47836	-0.47747964
130	0x3dbf86cf	0.093518846
131	0xbe15f854	-0.14645511
132	0x3f05150d	0.51985246
133	0x3dfd8bb0	0.12380159
134	0xbf39f8f5	-0.72645503
135	0xbdd1fafb	-0.10252949
136	0x3d8e9505	0.06962017
137	0xbb157c9b	-0.0022809866
138	0xbe24447f	-0.16041754
139	0xbebc962c	-0.36833322
140	0x3ebce6c7	0.3689482
141	0x3d6ffbf7	0.0585899
142	0x3e2d1f76	0.16906533
143	0x3de81288	0.113316596
144	0xbd0b18ae	-0.033959083
145	0xbe25710a	-0.16156402
146	0x3f4cbbe4	0.799742
147	0x3e170bbe	0.14750573
148	0x3e33bc2d	0.17552252
149	0x3ea211ec	0.31654298
150	0x3f12d2a5	0.5735267
151	0xbf07f1b0	-0.5310316
152	0xbc534cfd	-0.012896773
153	0x3e2f27d2	0.17105034
154	0x3eacb219	0.33729628
155	0xbd980f5d	-0.07424805
156	0xbec943ee	-0.3930964
157	0xbf111148	-0.56666994
158	0x3eed384e	0.4633202
159	0xbde04b0a	-0.109518126
160	0x3eca9fb6	0.39574975
161	0xbd3f9ee6	-0.046782397
162	0xbc8edd07	-0.017439378
163	0x3b1fe6ab	0.0024398963
164	0xbf052ce9	-0.5202165
165	0xbe1e261e	-0.15444228
166	0x3dde47fb	0.10853573
167	0x3b0aa627	0.0021156163
168	0x3d3ca9d3	0.046060394
169	0x3c0b1ed0	0.008491233
170	0x3f24e839	0.64416844
171	0xbdc131cd	-0.09433327
172	0x3da4fce2	0.08056046
173	0x3d13288d	0.035927344
174	0x3de668c4	0.11250451
175	0x3e04fd9b	0.12987368
176	0xbd9873d6	-0.07443969
177	0x3f61ddbd	0.8822897
178	0x3ea712e9	0.32631615
179	0x3eb1aa87	0.34700415
180	0xbf119ff9	-0.56884724
181	0xbe79003d	-0.24316497
182	0xbd90893b	-0.07057425
183	0x3df2f6d8	0.11863488
184	0x3d11dcb7	0.03561088
185	0xbc20db43	-0.009817901
186	0xbedf049d	-0.43558207
187	0xbda01a41	-0.078175075
188	0x3c8f6ab3	0.017506933
189	0x3d94e7dc	0.07270786
190	0x3c5d0e93	0.013492244
191	0xbeaf8d43	-0.34287462
192	0xbd0dbbd2	-0.034602948
193	0x3ee1cc56	0.44101208
194	0xbe9d8c2a	-0.30771
195	0x3d2f2d2e	0.042767696
196	0xbc4605fd	-0.012086389
197	0x3f2e2194	0.68019986
198	0x3e2238a2	0.15841916
199	0x3d145012	0.036209174
200	0xbde1437a	-0.10999198
201	0x3f25ba2e	0.6473721
202	0x3f17e3e2	0.59332097
203	0xbcf0eb96	-0.029409211
204	0x3cfa923b	0.030587306
205	0xbf57908e	-0.8420495
206	0x3dc63c90	0.0967952
207	0x3e811437	0.25210735
208	0xbd9337d7	-0.07188385
209	0x3cdb48e6	0.02676816
210	0xbf40436f	-0.75102895
211	0x3e44c503	0.19215779
212	0xbe2ec7d3	-0.17068414
213	0xbc642403	-0.0139246015
214	0xbd8903d1	-0.06690181
215	0x3d30c99e	0.043161027
216	0xbf48bad4	-0.7841008
217	0x3e12bb61	0.14329292
218	0xbbbe06c0	-0.0057991445
219	0x3b5b421f	0.003345616
220	0x3f2d5517	0.6770796
221	0xbf850c7b	-1.0394434
222	0xbe537b9a	-0.20652619
223	0xbf024c59	-0.5089775
224	0x3eb5ae97	0.35484764
225	0xbdd1be4e	-0.10241376
226	0x3d1f4940	0.038888216
227	0xbf41ef3d	-0.75755674
228	0xbbda183a	-0.00665572
229	0xbf167278	-0.58768415
230	0x3df78b6a	0.12087138
231	0xbf3539d2	-0.7079135
232	0xbeaa4418	-0.33255076
233	0xbec5dc38	-0.38644576
234	0x3fa644e8	1.2989779
235	0xbe0e5a1c	-0.13901561
236	0xbf155c0b	-0.5834357
237	0xbc3507a9	-0.01104919
238	0xbf2760bb	-0.65381974
239	0xbdd23275	-0.1026353
240	0xbddf1426	-0.10892515
241	0x3eb691df	0.35658166
242	0xbd27f083	-0.041000854
243	0x3ed7de73	0.42161903
244	0xbe1008ec	-0.14065903
245	0x3f50041e	0.8125628
246	0x3bfc0f69	0.0076922667
247	0x3e75370d	0.23946781
248	0x3dca3b70	0.09874618
249	0x3df552c9	0.11978681
250	0xbf3bb57c	-0.733238
251	0xbf4805f5	-0.7813409
252	0x3e453256	0.19257483
253	0xbf3f55cb	-0.74740285
254	0xbe80f19d	-0.25184336
255	0xbee7941f	-0.45230195

sequential_3_1/dense_10_1/BiasAdd/ReadVariableOp f4 [64]
0	0x3ebaf612	0.36515862
1	0xbdc8317c	-0.097750634
2	0x3e497e66	0.19677123
3	0xbea72ec7	-0.32652876
4	0xbd802283	-0.062565826
5	0xbe0fe3d9	-0.1405176
6	0x3e326882	0.17422679
7	0xbc96b559	-0.01839702
8	0x3e76002c	0.24023503
9	0x3e1b58d3	0.15170603
10	0x3e1b9706	0.1519433
11	0x3e189d87	0.14903842
12	0xbe2e43d3	-0.1701806
13	0x3e921ee9	0.28539208
14	0x3e43c32d	0.19117422
15	0x3e015924	0.1263166
16	0x3e7e496b	0.24832694
17	0xbdd7d7cc	-0.10539207
18	0x3e5054f2	0.20344904
19	0x3c932296	0.017960828
20	0x3d867b75	0.06566516
21	0x3e7786a7	0.2417246
22	0x3e9c0ce6	0.3047859
23	0x3d710eb3	0.05885191
24	0x3e902cf5	0.281593
25	0x3d71389b	0.058891874
26	0x3d9d0f8f	0.07668983
27	0x3e559b72	0.20860079
28	0x3e6b1a79	0.22959317
29	0x3cce7af8	0.02520512
30	0x3e8c89c4	0.27448857
31	0xbaa72c31	-0.0012754259
32	0x3e85987b	0.26092896
33	0xbe04d141	-0.12970449
34	0xbe564c03	-0.20927434
35	0xbdc3c2f9	-0.095586725
36	0xbe0347d9	-0.12820376
37	0x3e7bc78e	0.24587843
38	0x3d69f2fc	0.057116494
39	0xbb5136af	-0.0031923463
40	0xbe794e56	-0.24346289
41	0xbc97cc6a	-0.01853009
42	0x3e742b52	0.2384465
43	0xbd9f8f26	-0.07790975
44	0x3ccf226a	0.025284965
45	0xbdddf45e	-0.10837625
46	0x3ef66d0a	0.48130065
47	0xbd39e43a	-0.04538367
48	0x3e22eb65	0.15910108
49	0x3e7b7235	0.24555285
50	0x3d008e3d	0.03138565
51	0x3e4c6d45	0.19963558
52	0x3e344906	0.17605981
53	0x3e749afb	0.23887245
54	0x3d50c7d0	0.050971806
55	0x3d90fd5a	0.07079573
56	0x3e418d71	0.18901612
57	0xbe0245b1	-0.12721898
58	0x3dcfc8c3	0.10145714
59	0x3e5e2d7a	0.21697035
60	0x3e758c80	0.23979378
61	0xbe296f3f	-0.16546343
62	0x3e83f143	0.25770006
63	0x3d4a1909	0.04934028

sequential_3_1/dense_11_1/BiasAdd/ReadVariableOp f4 [21]
0	0x3e23fd71	0.16014649
1	0x3ecf3ef7	0.40477726
2	0x3db0bb21	0.08629442
3	0x3e8bdfa5	0.27319065
4	0x3e6411f3	0.22272472
5	0xbec3e9a5	-0.38264194
6	0x3ea4d73d	0.32195464
7	0x3d5bf6b7	0.053702082
8	0xbe41fa31	-0.18943097
9	0xbec315e8	-0.3810265
10	0x3d809d85	0.062800445
11	0xbda6590e	-0.081224546
12	0xbf1eb546	-0.6199535
13	0x3dddcbb3	0.10829868
14	0xbeba4bb1	-0.36385873
15	0xbcead8c1	-0.02866781
16	0xbe1610cb	-0.14654844
17	0x3ce8c06f	0.028412072
18	0xbc96c8b8	-0.018406257
19	0x3e9bcb6a	0.3042863
20	0xbcc18320	-0.023622096

sequential_3_1/dense_9_1/BiasAdd/ReadVariableOp f4 [128]
0	0xbdf0b328	-0.11752921
1	0xbe7c3b37	-0.24631964
2	0x3ccb091e	0.02478462
3	0x3e223d61	0.15843727
4	0x3d557e29	0.05212227
5	0xbeabfd9a	-0.3359192
6	0xbe970367	-0.29494783
7	0x3d067be3	0.03283299
8	0xbe083471	-0.13301255
9	0xbe8e17f3	-0.27752647
10	0x3d4fe2e9	0.050753508
11	0xbce79f8d	-0.028274322
12	0x3dc756c6	0.097333476
13	0xbe946c6f	-0.28988978
14	0x3e14e80d	0.14541645
15	0xbd6cf9cd	-0.057855416
16	0xbe05c97c	-0.13065141
17	0x3db17cd6	0.08666389
18	0xbd51c973	-0.051217508
19	0x39025478	0.00012429233
20	0xbce7cf2f	-0.028297035
21	0x3da7be7f	0.08190631
22	0xbbadfb0d	-0.0053094686
23	0xbc3ca047	-0.0115128225
24	0x3db8887e	0.09010409
25	0xbe349cc0	-0.1763792
26	0x3d846cee	0.06466089
27	0xbe2c0c44	-0.16801554
28	0xbe9a170b	-0.30095705
29	0xbe31cbe0	-0.17362928
30	0x3e01c044	0.12671
31	0x3dde0958	0.10841626
32	0x3cd07648	0.025447026
33	0x3dc4f127	0.09616309
34	0x3b99e8aa	0.004696925
35	0xbeadbfc8	-0.3393538
36	0x3c583ddb	0.013198341
37	0xbda51bb0	-0.080619216
38	0x3dc04aae	0.09389244
39	0x3dc4779d	0.09593127
40	0x3d1937c2	0.03740669
41	0x3d830541	0.063974865
42	0xbc9db11c	-0.019249491
43	0x3cdeb7b3	0.027187204
44	0x3d23fbf3	0.0400352
45	0xbe5004fe	-0.20314404
46	0x3cb2078e	0.021732118
47	0xbba622d4	-0.00507007
48	0x3df0e25b	0.11761924
49	0x3c4bbb0a	0.01243473
50	0x3cec28b8	0.02882801
51	0x3dc87c74	0.097893625
52	0xbe10352f	-0.14082788
53	0xbbf7264a	-0.007542406
54	0x3cbda881	0.023151638
55	0x3d416d2e	0.047223262
56	0x3d202987	0.039102104
57	0xbca9c280	-0.020722628
58	0x3d4a12ca	0.049334325
59	0x3e7391c1	0.2378607
60	0xbe9ad9cc	-0.3024429
61	0xbdd6a1fd	-0.104801156
62	0xbe29131f	-0.165112
63	0x3be36321	0.0069393073
64	0xbe643238	-0.22284782
65	0xbceb5ab2	-0.02872977
66	0xbe5e9bda	-0.2173914
67	0x3c4573c3	0.0120515255
68	0xbe8f4693	-0.2798353
69	0xbe2a3400	-0.16621399
70	0x3d3c9abb	0.046046
71	0x3cb65e1e	0.022261675
72	0xbcce7848	-0.025203839
73	0x3dcb89c4	0.09938386
74	0xbc66fcf5	-0.014098396
75	0x3de5942f	0.112099044
76	0xbe8f4752	-0.279841
77	0xbd028fec	-0.031875536
78	0xbde7e9b2	-0.11323871
79	0xbe27c990	-0.16385484
80	0xbe861912	-0.26191002
81	0xbdb8b180	-0.090182304
82	0xbe38f89e	-0.1806359
83	0xbb34382c	-0.0027499301
84	0x3deae6b0	0.114697814
85	0xbdaaf40e	-0.08347331
86	0x3cf35566	0.029703807
87	0xbe5067ee	-0.20352146
88	0x3c53d035	0.012928058
89	0xbd19dcab	-0.03756396
90	0xbe9efc79	-0.31051996
91	0x3da3c5cd	0.07996712
92	0xbae456a9	-0.0017420846
93	0x3cdd6107	0.027023805
94	0x3c808972	0.015690539
95	0xbdfd4738	-0.123670995
96	0x3d1ea2b9	0.038729403
97	0xbdf3cc7d	-0.119042374
98	0xbc823265	-0.01589317
99	0xbe380c5a	-0.17973462
100	0x3d8b7d1f	0.06810974
101	0x3ca05a26	0.019574236
102	0xbd8613e7	-0.06546765
103	0x3d75164c	0.059835717
104	0xbe0c148d	-0.13679715
105	0xbea443d4	-0.32083
106	0xbe0b0faf	-0.13580202
107	0x3d0b6bc2	0.034038313
108	0xbe584810	-0.2112124
109	0x3e0a38a6	0.13498172
110	0x3d0f16fc	0.03493403
111	0x3d64c3d3	0.055850815
112	0x3e3b425d	0.18287034
113	0xbd871376	-0.06595509
114	0xbba76555	-0.0051085153
115	0x3bdcea39	0.0067417887
116	0x3e57ebcc	0.21086043
117	0xbd51309f	-0.05107176
118	0xbe3a2fc1	-0.18182279
119	0x3dd01a6d	0.1016129
120	0xbd52794b	-0.051385205
121	0xbd5175e1	-0.05113781
122	0xbc141879	-0.009039038
123	0x3d1276c4	0.035757795
124	0x3d87f76a	0.06638987
125	0xbda2f578	-0.07956976
126	0x3c9fb6ec	0.019496404
127	0xbd79e2f0	-0.06100744

sequential_3_1/dense_9_1/MatMul f4 [128, 42]
0	0xbd533488	-0.05156377
1	0xbdd9933f	-0.10623788
2	0x3e7a3cc6	0.24437246
3	0x3d009e1b	0.03140078
4	0xbd4b0c64	-0.049572363
5	0x3d5fcc24	0.054638043
6	0x3d818a12	0.06325163
7	0xbdbced70	-0.09224975
8	0x3c86a1ff	0.016434668
9	0xbe78fe7c	-0.24315828
10	0x3cb13363	0.021630948
11	0xbed92439	-0.42410448
12	0x3d92b8c6	0.07164149
13	0xbe84f72f	-0.25969836
14	0x3dbe9121	0.09305025
15	0x3dbf0486	0.09327035
16	0xbe5e3157	-0.21698509
17	0x3d423739	0.047415946
18	0x3e99bc26	0.30026358
19	0xbf0c98f5	-0.54920894
20	0x3cc7c447	0.024385585
21	0xbdeac624	-0.114635736
22	0xbd4a1ad7	-0.049342003
23	0x3ead3161	0.33826736
24	0xbc074279	-0.008255594
25	0x3f4bb144	0.7956736
26	0x3e39dcb1	0.18150593
27	0xbeb453d8	-0.35220218
28	0x3ea47dfc	0.32127368
29	0xbe7067f5	-0.23477156
30	0xbd7875ad	-0.0606591
31	0x3d9018b6	0.07035963
32	0xbeae5e30	-0.34056234
33	0x3ede22de	0.43385977
34	0x3e9f179a	0.31072694
35	0xbeee0ff6	-0.46496552
36	0x3ea714e6	0.32633132
37	0xbe904744	-0.2817937
38	0x3d541f24	0.05178751
39	0xbe48df62	-0.19616464
40	0xbe96d319	-0.2945793
41	0xbe3b9ce2	-0.18321565
42	0x3ce3de18	0.027815863
43	0x3db2bb44	0.08727124
44	0xbe7d60d9	-0.24743976
45	0x3d808dbf	0.06277036
46	0xbed8085c	-0.42193878
47	0xbc767541	-0.015042604
48	0xbec0f8b1	-0.37689736
49	0xbea24813	-0.31695613
50	0xbe274d46	-0.16338071
51	0xbed5b8cf	-0.4174256
52	0xbea1aa34	-0.31575167
53	0x3f04f6b4	0.5193894
54	0xbe99dea4	-0.30052674
55	0xbe03cc0a	-0.12870803
56	0xbeedb127	-0.4642422
57	0xbe86972f	-0.2628722
58	0xbe40793a	-0.18796244
59	0xbdc2374d	-0.09483204
60	0xbea62511	-0.32450154
61	0x3ee0de3a	0.43919545
62	0xbed31d21	-0.4123316
63	0x3b5b1f24	0.003343531
64	0xbf040fa2	-0.51586354
65	0x3ddd9520	0.10819459
66	0xbf1f0dce	-0.6213044
67	0x3e876918	0.26447368
68	0xbe1f48bd	-0.15555091
69	0x3e0fc27f	0.14039038
70	0xbe288347	-0.16456328
71	0x3db669a0	0.08906865
72	0xbe5972b5	-0.21235164
73	0x3dc21d8b	0.09478291
74	0xbecaa723	-0.3958064
75	0x3e612bef	0.21989416
76	0xbd0d770a	-0.034537353
77	0x3ea5afb0	0.323606
78	0xbe0ed46e	-0.13948223
79	0x3ee58ce5	0.44834056
80	0xbed96866	-0.42462462
81	0x3eed1c57	0.46310684
82	0xbecd0144	-0.40040028
83	0x3f089934	0.5335877
84	0xbc9fef80	-0.019523382
85	0x3db21628	0.08695632
86	0xbddaf179	-0.106905885
87	0x3df0489d	0.117326
88	0xbe141407	-0.14460765
89	0x3d8857d0	0.06657374
90	0xbdbbef87	-0.091765456
91	0x3ec81501	0.39078525
92	0xbe054cf0	-0.1301763
93	0x3ef58e0c	0.47959936
94	0x3e641ffd	0.22277828
95	0xbeb0db31	-0.3454223
96	0x3e3513e4	0.17683369
97	0x3d12f322	0.0358764
98	0x3d1e89ba	0.038705565
99	0x3d4829db	0.04886804
100	0x3ea77cf1	0.3271251
101	0x3e4fa1bc	0.2027654
102	0x3ea3d1b0	0.31995916
103	0xbf093ef9	-0.53611714
104	0x3e017241	0.1264124
105	0xbca75090	-0.020424157
106	0xbe500466	-0.20314178
107	0x3e1e6f69	0.15472187
108	0xbdae3df0	-0.085079074
109	0x3e1e3d14	0.15452987
110	0x3ebcfd28	0.36911893
111	0xbef10f07	-0.47081777
112	0x3e811c22	0.25216776
113	0xbd163b22	-0.036677487
114	0xbd095e7c	-0.033537373
115	0x3e701061	0.23443748
116	0xbef13c84	-0.47116482
117	0x3e8ad030	0.2711196
118	0x3eef2e21	0.4671488
119	0xbe9d8359	-0.30764273
120	0x3ebdaf44	0.3704778
121	0xbed0fbdc	-0.40817153
122	0x3e502180	0.20325279
123	0xbea4b372	-0.32168156
124	0xbeb2f737	-0.34954235
125	0xbe4fc7b9	-0.20291032
126	0xbe342169	-0.1759087
127	0x3dcf1354	0.101111084
128	0x3d430106	0.047608398
129	0x3d023c6a	0.031795897
130	0xbdaf75cb	-0.08567389
131	0x3e5312b0	0.20612597
132	0x3e073bb0	0.13206363
133	0x3e0dc0fe	0.13843152
134	0xbe466dd0	-0.19377828
135	0xbe687568	-0.22701037
136	0x3ec22c5d	0.37924471
137	0x3e856f1e	0.26061338
138	0xbe1d8a42	-0.15384772
139	0x3e32505f	0.17413472
140	0xbec3b73a	-0.38225728
141	0x3e82b9e2	0.25532442
142	0xbe9c08bf	-0.30475423
143	0x3d9ac531	0.075571425
144	0x3e567e1e	0.20946547
145	0x3d971baa	0.073783234
146	0xbd958b7e	-0.07301997
147	0xbde043b8	-0.10950416
148	0xbe7371c0	-0.23773861
149	0xbebd0536	-0.36918038
150	0xbebdbe8e	-0.37059444
151	0xbf3827f8	-0.7193599
152	0x3d09350c	0.033497855
153	0x3e4029ef	0.18765996
154	0x3d8b1784	0.067915946
155	0x3ea10938	0.31452346
156	0x3e62258b	0.22084634
157	0xbbe58e46	-0.0070054857
158	0x3f437cd6	0.7636236
159	0xbebcf99f	-0.36909196
160	0xbdbafc32	-0.09130134
161	0xbc0a246b	-0.008431534
162	0xbeb9a10f	-0.3625569
163	0x3dae7fbe	0.08520459
164	0x3e8855e9	0.26628044
165	0x3da57367	0.08078652
166	0x3f2ca778	0.6744304
167	0x3e68bbbf	0.2272787
168	0x3da79f80	0.08184719
169	0xbdfac7fb	-0.122451745
170	0x3e54dadb	0.20786612
171	0xbb03a23c	-0.0020085713
172	0x3d7156eb	0.058920782
173	0x3d93860e	0.07203303
174	0x3e52a57f	0.20570944
175	0x3d011ccc	0.031521603
176	0x3db98d6c	0.09060177
177	0xbf16f13d	-0.5896185
178	0x3df82926	0.121172234
179	0xbec5a144	-0.38599598
180	0xbe83c75c	-0.25738037
181	0x3e8e6151	0.27808622
182	0xbea865de	-0.32890218
183	0x3f145fdb	0.57958764
184	0xbef19859	-0.47186545
185	0x3f585516	0.8450483
186	0x3e2bfde1	0.16796066
187	0xbe8ebe30	-0.27879477
188	0xbe3e12ff	-0.18561934
189	0xbefce516	-0.4939353
190	0x3e0520f8	0.13000858
191	0xbf168779	-0.58800465
192	0x3de2d82d	0.110763885
193	0xbf247a29	-0.642489
194	0xbe84a388	-0.25906014
195	0xbed5c67b	-0.4175299
196	0xbd03d692	-0.032187052
197	0xbe3f47ea	-0.18679777
198	0x3eb0b238	0.3451097
199	0x3e02bebf	0.12768076
200	0x3ec3aaf1	0.38216355
201	0x3ea176a4	0.31535828
202	0xbe54f47d	-0.2079639
203	0xbebcf94f	-0.36908957
204	0xbe08ac60	-0.13347006
205	0xbdd68c8f	-0.10476028
206	0x3e53ae7d	0.20672031
207	0x3eb00e67	0.34385988
208	0x3de3036c	0.11084637
209	0x3f59a51b	0.85017556
210	0xbe188f22	-0.14898351
211	0xbe06c049	-0.13159288
212	0x3e15fa5d	0.14646287
213	0xbe9cb79b	-0.3060883
214	0x3db78061	0.08960033
215	0xbeba373c	-0.36370265
216	0x3d45efe7	0.04832449
217	0xbe5db34b	-0.21650426
218	0x3d0d7b30	0.03454131
219	0xbe1a7644	-0.15084177
220	0x3e50f387	0.20405398
221	0xbe560778	-0.20901287
222	0x3cbfc098	0.023407266
223	0xbe37b1d8	-0.17938936
224	0x3e7d0f8c	0.24712962
225	0xbe932c82	-0.28744894
226	0xbd280f47	-0.041030195
227	0xbe5dfdb7	-0.21678816
228	0x3e42e98e	0.19034407
229	0xbe37d4db	-0.17952292
230	0x3d9836de	0.0743234
231	0xbe904647	-0.28178617
232	0xbdb478f1	-0.0881213
233	0xbf207e61	-0.6269284
234	0xbeab5bf8	-0.33468604
235	0xbf0fd803	-0.5618898
236	0xbd87ac17	-0.066246204
237	0xbda0b589	-0.07847125
238	0xbe9d0add	-0.3067235
239	0x3d7ddd09	0.061978374
240	0xbebc1e54	-0.3674189
241	0xbdf496a2	-0.119427934
242	0xbf13aec5	-0.5768855
243	0xbeb9062f	-0.3613753
244	0x3dc003ed	0.09375749
245	0x3e9ac547	0.30228636
246	0xbcdc5e3a	-0.0269004
247	0xbcf109ae	-0.029423561
248	0xbe9dcffd	-0.30822745
249	0x3e5a0768	0.21291888
250	0xbe6f11ed	-0.23346682
251	0x3ee102cd	0.4394745
252	0x3d935f28	0.07195884
253	0x3ca39ff0	0.019973725
254	0xbec0c6bc	-0.37651622
255	0x3ea44566	0.32084197
