hand_gesture_model.tflite (tflite, 63404 bytes, 6 tensors)

arith.constant f4 [24, 64]
0.23524031 0.104597725 0.24243028 -0.00447112 0.25673476 -0.4294962 0.19518939 -0.045221105
0.092610985 -1.4781573 -0.045809392 -0.108649544 0.16795745 -0.1579764 -0.5062139 -0.8841092
0.00325261 -0.2986907 -0.045178734 0.031628028 -0.07219985 -0.07643197 -0.20347418 -0.52703035
-0.14924145 -0.48139897 -0.43207648 -0.32009614 -0.093834616 -0.08592572 -0.039647482 0.14233448
-0.14688513 -0.044581983 0.1998712 -0.27665687 0.1534445 0.09486392 -0.3716221 0.15001963
-1.0196941 0.07199377 0.17307384 -0.15791203 0.28481168 0.13447714 0.105467364 0.22938947
0.23340727 0.10926708 0.2089927 0.07769743 -1.2876695 0.069219545 0.16792823 0.33235207
-1.4672716 -0.4895327 -0.6902431 0.24966303 -0.6136838 0.089169 -0.23289633 0.12085751
0.25330436 0.18483919 0.22146745 0.091785744 0.34109384 0.20225693 -0.87296116 -0.92433035
0.12184108 -1.3126926 -0.88534695 -0.4409407 0.22326171 0.2979016 -0.056486066 -0.7551677
-1.0180626 -1.9677159 -1.7194408 -1.5294346 0.064569816 -1.1157004 -1.1856867 -1.0979706
-0.7029953 0.84384865 -1.3167402 -1.1565737 -0.48700222 0.29320094 -0.7666914 0.14990167
-1.1583849 -0.7928886 0.24651909 -0.8832721 0.20671387 -1.1845645 -0.30256405 0.18265428
-0.8832142 -1.5036808 0.027693441 0.15176786 0.39737236 0.19442299 0.0642672 0.17741653
0.3152673 0.116398156 0.17336778 0.25498 -1.2725137 -2.1798232 -1.1221403 -0.5266713
-1.020822 -0.68984526 -1.383957 -1.2237356 -0.062387154 0.1591061 0.29541382 0.19718216
0.24487759 0.24110694 0.23885472 0.24402125 0.25072497 0.26035994 -0.8621392 -1.1689625
0.12058046 -0.6882468 -1.7375692 0.20215435 0.23957695 -1.5623803 -1.2042218 -0.94359356
-0.93578917 -0.98640305 -1.2778794 -1.0927004 0.10844694 -1.2712287 -1.2355888 0.30277455
0.049337056 -0.9201053 -0.8270153 -1.2137796 -0.32197472 0.2518691 -1.0555274 0.23489499
-0.6883764 -1.1103795 0.27442992 -0.3347357 0.3586237 -1.5055132 -0.53040695 0.19309579
-0.69777256 -1.2490406 -0.82279783 -0.11742472 -1.3189023 0.18734181 0.03511352 -0.27514943
-0.2714185 0.018119376 -1.3006841 0.2655169 0.07985109 -0.114898205 -1.1442673 -0.49914658
0.009312689 -1.0123346 0.19619529 -1.4573225 -0.029853242 0.18975651 0.4006781 -1.6564264
0.1480547 0.18261357 0.20129114 0.1255903 0.14049272 -0.09574434 -0.1994381 -0.30616423
0.035113633 -0.94224113 -0.022078702 0.07833891 0.05579421 -1.0445683 -0.70457655 0.18231721
-0.0045633367 -1.2212242 -1.3917562 -0.70918185 -0.8940785 -0.6005434 -0.6089722 0.25731927
0.15157077 -1.4149336 -0.22916968 0.15493554 -0.583381 0.014796783 -0.9380405 0.16181809
-0.9269627 0.18046694 0.18182969 -1.1301123 0.20163299 0.0027819856 -0.8182725 -0.08157129
0.37592554 0.25948268 -0.90784645 -0.56674045 -1.1132907 -0.010214884 0.20986237 -0.87688744
-1.2741711 -0.060759783 -1.3708533 -0.01996965 0.11130832 0.11415216 0.19324955 0.1549125
0.28551823 -0.09079586 0.27591914 0.19926506 0.111823484 0.12321782 0.37350446 -1.2776943
00000000: d6e2 703e 5537 d63d a53f 783e 7982 92bb
00000010: bd72 833e ede6 dbbe badf 473e c439 39bd
00000020: d4aa bd3d 4234 bdbf a1a2 3bbd a783 debd
00000030: 0afd 2b3e 91c4 21be 3c97 01bf fb54 62bf
00000040: be29 553b fded 98be 560d 39bd 648c 013d
00000050: 84dd 93bd 5d88 9cbd 895b 50be 76eb 06bf
00000060: c0d2 18be ed79 f6be 2139 ddbe a4e3 a3be
00000070: 5d2c c0bd d3f9 afbd 6665 22bd 21c0 113e
00000080: 0e69 16be 999b 36bd 09ab 4c3e f8a5 8dbe
00000090: 8e20 1d3e 0448 c23d 4045 bebe bf9e 193e
000000a0: 5685 82bf 7871 933d 453a 313e b1b3 21be
000000b0: d6d2 913e 60b4 093e 46ff d73d 13e5 6a3e
000000c0: 5102 6f3e 6bc7 df3d 2f02 563e d51f 9f3d
000000d0: 5bd2 a4bf fac2 8d3d 61f5 2b3e 0d2a aa3e
000000e0: 8ecf bbbf 08a4 fabe c6b3 30bf aaa7 7f3e
000000f0: 621a 1dbf 3d9e b63d 607c 6ebe 2484 f73d
00000100: 1cb1 813e 7c46 3d3e 5dc8 623e 2afa bb3d
00000110: daa3 ae3e 711c 4f3e 627a 5fbf eaa0 6cbf
00000120: d187 f93d 5006 a8bf 19a6 62bf fbc2 e1be
00000130: b89e 643e 8f86 983e ef5d 67bd ac52 41bf
00000140: e04f 82bf 1dde fbbf a316 dcbf 83c4 c3bf
00000150: 2e3d 843d 45cf 8ebf 95c4 97bf 4d8a 8cbf
00000160: 80f7 33bf 7706 583f f18a a8bf 9b0a 94bf
00000170: 5b58 f9be 6f1e 963e e345 44bf d37f 193e
00000180: f545 94bf bffa 4abf 806f 7c3e 1f1e 62bf
00000190: cdac 533e cf9f 97bf ade9 9abe b909 3b3e
000001a0: 531a 62bf 9d78 c0bf 5bdd e23c 0969 1b3e
000001b0: 6474 cb3e d216 473e 869e 833d aeac 353e
000001c0: b76a a13e 2862 ee3d 5387 313e bd8c 823e
000001d0: bbe1 a2bf 3982 0bc0 4ba2 8fbf eed3 06bf
000001e0: 4caa 82bf b399 30bf 8125 b1bf 5ea3 9cbf
000001f0: ac89 7fbd b6ec 223e 7b40 973e 1fea 493e
00000200: 31c1 7a3e bde4 763e 5596 743e b5e0 793e
00000210: 065f 803e e64d 853e 28b5 5cbf 90a0 95bf
00000220: e3f2 f63d f130 30bf ab68 debf 8d01 4f3e
00000230: a953 753e 14fc c7bf f123 9abf 598f 71bf
00000240: e18f 6fbf e984 7cbf 8d91 a3bf 9bdd 8bbf
00000250: 6e19 de3d 9fb7 a2bf c627 9ebf 4405 9b3e
00000260: a715 4a3d 058c 6bbf 46b7 53bf 215d 9bbf
00000270: dfd9 a4be fdf4 803e 861b 87bf 5088 703e
00000280: 7039 30bf ea20 8ebf 1482 8c3e 7a62 abbe
00000290: 879d b73e a8b4 c0bf c0c8 07bf e7ba 453e
000002a0: 39a1 32bf 90e0 9fbf e1a2 52bf 5f7c f0bd
000002b0: cad1 a8bf 88d6 3f3e 32d3 0f3d 63e0 8cbe
000002c0: 5ef7 8abe 166f 943c d17c a6bf d5f1 873e
000002d0: f888 a33d c04f ebbd 5a77 92bf 2490 ffbe
000002e0: 4094 183c 2e94 81bf 6be7 483e 8b89 babf
000002f0: c98e f4bc 884f 423e ae25 cd3e c805 d4bf
00000300: a79b 173e 0dff 3a3e 441f 4e3e be9a 003e
00000310: 53dd 0f3e 9c15 c4bd 8039 4cbe 8fc1 9cbe
00000320: 50d3 0f3d b736 71bf 65de b4bc 2770 a03d
00000330: 7888 643d 6ab4 85bf 215f 34bf 5db1 3a3e
00000340: 0b88 95bb 1351 9cbf 1125 b2bf f18c 35bf
00000350: 54e2 64bf 36bd 19bf 9ae5 1bbf 5abf 833e
00000360: 5e35 1b3e 8b1c b5bf 75ab 6abe 6ca7 1e3e
00000370: 7558 15bf 356e 723c 6c23 70bf a4b3 253e
00000380: 6d4d 6dbf 53cc 383e 9031 3a3e 85a7 90bf
00000390: e178 4e3e f951 363b 4e7a 51bf d90e a7bd
000003a0: 5079 c03e eada 843e a068 68bf e715 11bf
000003b0: 4f80 8ebf 545c 27bc 29e6 563e b27b 60bf
000003c0: 0a18 a3bf 40df 78bd 1f78 afbf 6497 a3bc
000003d0: 9ef5 e33d 9cc8 e93d 36e3 453e 62a1 1e3e
000003e0: 722f 923e 2ef3 b9bd 4645 8d3e 240c 4c3e
000003f0: b603 e53d a059 fc3d fa3b bf3e 7d8b a3bf

arith.constant1 f4 [64, 128]
0.5279738 -0.8607027 -0.106525145 0.6127612 0.48502108 -0.197183 1.0579842 -0.050059766
0.6181975 0.008090626 -0.1512107 0.27062628 0.06501899 -0.57464725 0.16786762 0.42375338
0.10155972 0.029251536 -0.6173855 -0.07128042 -0.18316579 -0.29845703 0.11275652 0.91546047
0.82746345 -0.52128106 0.59694487 0.5571783 0.024583276 0.019961633 -0.124901034 -0.6182631
0.17738636 0.87566316 0.043300208 0.79124594 -0.19209178 1.1159921 -0.052031167 -0.16888528
0.12729083 -0.44736972 1.069591 -0.03560785 -0.29485708 0.59195954 -0.11104774 -0.010142627
-0.09202712 1.2523614 0.9239621 0.18820539 0.15757103 -0.31460956 0.060108237 -0.37609226
0.23454955 0.0017309733 -0.02977914 0.07177716 0.3708381 -0.06694204 -1.0273015 -0.034511175
0.47920477 -0.13058749 0.7559307 -0.126106 0.80797523 0.49265796 -0.0004330672 -0.05364777
0.01373388 -0.20122688 -0.30313203 -0.024401676 -0.2555093 -0.42163402 0.12113154 -0.0542233
-0.7907693 -0.0050695403 -0.32536864 0.6856892 -0.6111075 0.014905801 0.5722076 0.12521353
0.024303295 0.08900593 0.112831876 0.5690028 -0.18848823 0.5828754 -0.44186774 -0.38338408
0.105212465 0.5963355 -0.2918499 0.06947111 0.0053538033 -0.7026059 -0.13081594 -0.4010791
-0.14205585 1.0588465 0.16538829 0.11619539 0.35917714 -0.19251998 -0.023954352 -0.13494314
-0.043741655 0.21793999 0.3964973 0.07158239 -0.025099473 0.75619644 0.09788645 0.14933604
0.2278539 -0.75635093 -1.0168972 0.13950786 0.5040987 0.4858909 0.012070891 0.072622746
0.76263696 -0.29627305 0.026382953 0.52231985 0.61893773 0.09534269 0.5540783 -0.5162364
0.4441485 -0.4667732 0.23488669 0.8506619 0.37222078 -0.3643209 0.32081455 0.063215256
0.7671422 -0.32077366 -0.44290426 0.35383183 0.6577339 -0.1409973 0.02788639 -0.498855
0.74952435 0.17931123 0.6615992 0.26347616 -0.064260766 0.28382623 -0.3142392 -0.36527687
-0.22752744 0.18845437 0.3353205 0.31892532 -0.60094327 0.15039006 -0.4269357 -0.9555123
0.16709153 0.40423307 0.28230304 0.4595876 -0.23807457 -0.42442176 0.45027745 0.15895975
-0.18720703 0.17698665 0.13467905 0.15323308 0.25558633 -0.7576159 0.2747777 -0.016570052
0.19365051 0.089371756 -0.29169267 -0.044173867 0.33323053 -0.36436453 -0.395537 -0.64212
0.07888128 -0.24970667 0.17838189 0.2740885 0.52171564 -0.33716702 -0.3723522 -0.59167755
-0.05262892 -0.20021953 -0.15473107 -0.39119574 0.25679564 -0.63222903 0.07897701 0.11350599
0.28186515 0.10685762 0.020110512 0.22319604 -0.30893442 -0.7838134 -0.0046291216 0.20130913
-0.39874738 0.6644699 0.19703734 0.9154943 -0.12390138 0.09587379 -0.15950285 0.15265523
0.781416 0.09080048 0.18869053 -0.08370586 -0.18544811 -0.5522444 -0.17752177 0.077852964
-0.7782805 0.2919427 0.18535376 0.06993194 0.25834346 -0.36245316 -0.13672486 0.12074401
0.5366727 -0.076190494 -0.2924129 0.22096688 -0.1650828 0.115572505 0.22322059 -1.0076535
0.13121381 0.6152537 -0.2300096 -0.21739748 0.1685638 0.20751862 0.066176586 -0.0051641413
00000000: 4a29 073f 0357 5cbf db29 dabd ebdd 1c3f
00000010: af54 f83e 57ea 49be 076c 873f 780b 4dbd
00000020: 3142 1e3f 8c8e 043c fad6 1abe 878f 8a3e
00000030: ad28 853d 151c 13bf 7de5 2b3e 34f6 d83e
00000040: 8bfe cf3d eba0 ef3c fa0c 1ebf 78fb 91bd
00000050: d08f 3bbe 5ccf 98be e4ec e63d 9e5b 6a3f
00000060: a5d4 533f ad72 05bf 61d1 183f 3da3 0e3f
00000070: de62 c93c 9486 a33c 1dcc ffbd 7e46 1ebf
00000080: c5a4 353e 762b 603f 8f5b 313d 188f 4a3f
00000090: b5b3 44be d4d8 8e3f a21e 55bd 43f0 2cbe
000000a0: 8758 023e a50d e5be 5ce8 883f 89d9 11bd
000000b0: 82f7 96be a98a 173f ff6c e3bd 432d 26bc
000000c0: b778 bcbd 614d a03f c888 6c3f eab8 403e
000000d0: 4d5a 213e 8114 a1be 0e34 763d 2a8f c0be
000000e0: c22d 703e d3e1 e23a 62f3 f3bc e7ff 923d
000000f0: 7ede bd3e e918 89bd 9e7e 83bf 975b 0dbd
00000100: 545a f53e bab8 05be ad84 413f ee21 01be
00000110: 77d7 4e3f aa3d fc3e 4c0d e3b9 c4bd 5bbd
00000120: 1104 613c 6b0e 4ebe 1f34 9bbe 06e6 c7bc
00000130: 1dd2 82be 6ae0 d7be d013 f83d 4019 5ebd
00000140: db6f 4abf 631e a6bb b896 a6be 5489 2f3f
00000150: 8b71 1cbf 7637 743c 337c 123f fa37 003e
00000160: b417 c73c be48 b63d 6614 e73d 2baa 113f
00000170: 0f03 41be 5237 153f 7d3c e2be eb4a c4be
00000180: a279 d73d 71a9 183f 5a6d 95be df46 8e3d
00000190: f56e af3b fbdd 33bf 9df4 05be 3d5a cdbe
000001a0: 1777 11be 4888 873f 8c5b 293e d9f7 ed3d
000001b0: 11e6 b73e f523 45be eb3b c4bc 892e 0abe
000001c0: 732a 33bd a92b 5f3e b201 cb3e ca99 923d
000001d0: 699d cdbc 1796 413f b178 c83d 8ceb 183e
000001e0: 8852 693e 37a0 41bf b029 82bf 26db 0e3e
000001f0: 9d0c 013f b1c6 f83e fdc4 453c 3cbb 943d
00000200: 2d3c 433f 1ab1 97be 1021 d83c c1b6 053f
00000210: b472 1e3f 0743 c33d 13d8 0d3f 1228 04bf
00000220: 6f67 e33e e6fc eebe 2386 703e fac4 593f
00000230: b993 be3e 4588 babe ce41 a43e 0077 813d
00000240: 6e63 443f 723c a4be 59c4 e2be 7229 b53e
00000250: 4061 283f 9961 10be 0072 e43c ec69 ffbe
00000260: d4e0 3f3f 5d9d 373e 915e 293f 59e6 863e
00000270: 269b 83bd ac51 913e f6e3 a0be 9205 bbbe
00000280: f4fc 68be 2ffa 403e 21af ab3e 2e4a a33e
00000290: 6bd7 19bf daff 193e 5197 dabe 749c 74bf
000002a0: 0b1a 2b3e a3f7 ce3e 068a 903e 114f eb3e
000002b0: d2c9 73be cf4d d9be c48a e63e 58c6 223e
000002c0: 33b3 3fbe fd3b 353e 4ee9 093e 22e9 1c3e
000002d0: 36dc 823e 1ef3 41bf aaaf 8c3e ebbd 87bc
000002e0: 524c 463e 8a08 b73d be58 95be a8ef 34bd
000002f0: 319d aa3e fd8d babe d383 cabe fa61 24bf
00000300: 828c a13d 1bb3 7fbe bea9 363e 5455 8c3e
00000310: 288f 053f 28a1 acbe f3a4 bebe 2e78 17bf
00000320: 6c91 57bd 5906 4dbe d271 1ebe cf4a c8be
00000330: b87a 833e c3d9 21bf b3be a13d d475 e83d
00000340: a150 903e 2bd8 da3d cdbe a43c 818d 643e
00000350: a72c 9ebe ffa7 48bf e3af 97bb fb23 4e3e
00000360: 9e28 ccbe b31a 2a3f 28c4 493e d65d 6a3f
00000370: 02c0 fdbd 7a59 c43d b754 23be a751 1c3e
00000380: e10a 483f 9af5 b93d 1738 413e fa6d abbd
00000390: 1ce6 3dbe e45f 0dbf 44c8 35be 6071 9f3d
000003a0: 643d 47bf 8379 953e 60cd 3d3e 7a38 8f3d
000003b0: 9845 843e 7693 b9be 9a01 0cbe a348 f73d
000003c0: 6263 093f c309 9cbd 25b7 95be 2445 623e
000003d0: 770b 29be 47b1 ec3d f093 643e cafa 80bf
000003e0: ea5c 063e 4481 1d3f a387 6bbe 729d 5ebe
000003f0: fd9b 2c3e c37f 543e 9787 873d f537 a9bb

arith.constant2 f4 [24]
-0.25796837 0.42128783 0.35863054 -0.09137291 0.78727436 -0.09434733 1.0706044 -0.6744396
-0.2237106 -0.488571 0.004894375 0.08468737 -0.7930947 0.7342888 0.029902812 -0.23788841
-0.21839847 -0.18897788 0.1751903 0.49912858 0.14728491 -0.12093994 -0.49567333 -0.773115
00000000: 6e14 84be 0ab3 d73e 6c9e b73e b821 bbbd
00000010: d08a 493f 2c39 c1bd 9109 893f 13a8 2cbf
00000020: 6414 65be fa25 fabe fe60 a03b 9270 ad3d
00000030: 4108 4bbf 5afa 3b3f bef6 f43c 0599 73be
00000040: d9a3 5fbe 6b83 41be 1665 333e c88d ff3e
00000050: dbd1 163e 5caf f7bd e5c8 fdbe ddea 45bf

arith.constant3 f4 [64]
-0.2630229 0.10527372 0.2130685 0.35539633 0.12185338 -0.15719868 0.22712538 -0.12762694
0.16323796 -0.3376672 -0.19207253 -0.12761283 0.1418816 0.22608006 -0.061056525 0.06076729
0.13496123 0.28042045 0.11899416 0.13275394 0.2924212 0.61910176 -0.39446706 0.2750732
-0.028938077 0.35599265 -0.12401333 0.7280835 -0.6456327 -0.58106667 -0.11273942 0.36462048
0.3569142 0.0733926 0.28856057 -0.15547915 -0.041908316 0.088210486 0.09177975 0.2507728
0.179518 0.35780933 -0.12887393 -0.14452744 -0.07430382 0.24240966 0.2385421 -0.009122094
0.18411818 0.04821983 0.210619 0.21858728 0.11031066 0.2062146 -0.12532526 0.030827746
-0.18921779 -0.14137252 0.32326078 0.15848428 -0.052002482 0.019381275 -0.022454016 0.07799452
00000000: f0aa 86be c099 d73d a12e 5a3e 82f6 b53e
00000010: 448e f93d b1f8 20be 8e93 683e a3b0 02be
00000020: da27 273e b7e2 acbe a9ae 44be f0ac 02be
00000030: 6949 113e 8881 673e 6816 7abd 1fe7 783d
00000040: 4733 0a3e 4593 8f3e 36b3 f33d a6f0 073e
00000050: 3bb8 953e 747d 1e3f 96f7 c9be 65d6 8c3e
00000060: 8c0f edbc ab44 b63e b3fa fdbd ae63 3a3f
00000070: 2f48 25bf c9c0 14bf ede3 e6bd 89af ba3e
00000080: 75bd b63e dc4e 963d 36be 933e ed35 1fbe
00000090: 0ea8 2bbd b3a7 b43d 06f7 bb3d 4b65 803e
000000a0: 91d3 373e c932 b73e 87f7 03be 00ff 13be
000000b0: 9a2c 98bd 3d3a 783e 6144 743e d674 15bc
000000c0: 7a89 3c3e 2882 453d 82ac 573e 58d5 5f3e
000000d0: 8eea e13d ec29 533e 4455 00be 788a fc3c
000000e0: 4fc2 41be f5c3 10be 7082 a53e b449 223e
000000f0: 8e00 55bd 7bc5 9e3c 7cf1 b7bc 97bb 9f3d

sequential_8_1/dense_24_1/BiasAdd/ReadVariableOp f4 [128]
0.08773025 0.04553721 0.020928765 0.01447359 -0.06363156 -0.016334008 0.10618784 -0.005958057
0.07248571 0.019556005 0.0098938495 -0.009255714 0.018405572 -0.17533322 -0.038870707 0.034752734
0.04717191 -0.13977621 -0.044968497 0.07718699 0.036217585 -0.24873154 -0.09209553 -0.30420336
-0.07737111 -0.01053109 0.12602492 0.02991227 -0.0540448 0.030510638 -0.10839361 -0.051351268
-0.3661704 -0.13984832 0.060891572 0.015965657 -0.3677847 0.049717322 -0.120844565 -0.205829
-0.36054087 0.12101159 0.12349346 -0.044732526 0.015799368 -0.23834522 0.12630667 0.014004964
0.09505004 -0.031124044 -0.35329685 -0.03126035 -0.042840723 -0.0332122 -0.050365724 -0.4101661
0.006892458 -0.14904287 -0.111100204 -0.0300467 -0.08066555 -0.085167855 -0.112689026 -0.20896444
-0.016046278 -0.18021943 0.036892213 -0.048827477 0.020838765 0.009838447 -0.19559216 0.13782991
0.098182544 -0.06114514 -0.26978225 0.04508372 0.12729035 -0.11322959 0.016637113 -0.005875616
-0.059158366 0.07347423 -0.17761245 0.12787336 -0.05769065 -0.22858903 -0.13414024 0.17270552
0.11764811 0.033505697 0.03450097 0.04657091 0.1293101 0.016840352 0.14627819 0.073416814
0.1577049 0.058474828 0.13030072 -0.078643434 -0.13895236 -0.06838009 -0.29427457 -0.004659545
-0.089014806 0.10508868 -0.026352873 0.068167716 -0.16660462 0.08423037 0.04168293 0.08262132
-0.07208472 -0.08716211 -0.09366634 -0.0019619325 -0.24611744 -0.14931594 0.042104736 -0.28617564
0.05409426 0.10735519 -0.17785221 0.03749307 -0.10517977 0.08125444 -0.19648302 0.03041556
00000000: ebab b33d 3a85 3a3d cd72 ab3c a322 6d3c
00000010: 4351 82bd e6ce 85bc 0379 d93d ce3b c3bb
00000020: 6373 943d ea33 a03c d019 223c 47a5 17bc
00000030: 48c7 963c 8d8a 33be e436 1fbd e258 0e3d
00000040: 5537 413d 7f21 0fbe e330 38bd 3614 9e3d
00000050: e458 143d 7bb3 7ebe 959c bcbd 8bc0 9bbe
00000060: bf74 9ebd 988a 2cbc ad0c 013e 940a f53c
00000070: 155e 5dbd 72f1 f93c 78fd ddbd b555 52bd
00000080: b07a bbbe 6634 0fbe 7169 793d 69ca 823c
00000090: 474e bcbe 64a4 4b3d 5b7d f7bd d6c4 52be
000000a0: d098 b8be edd4 f73d 24ea fc3d 7439 37bd
000000b0: ad6d 813c c510 74be 8956 013e 1475 653c
000000c0: 98a9 c23d daf7 febc 53e3 b4be da0a 00bd
000000d0: c179 2fbd 8409 08bd 4a4c 4ebd 4b01 d2be
000000e0: 21da e13b b29e 18be 8188 e3bd 7f24 f6bc
000000f0: fb33 a5bd 7c6c aebd 81c9 e6bd c6fa 55be
00000100: 7c73 83bc 718b 38be 4a1c 173d 52ff 47bd
00000110: 0fb6 aa3c 7031 213c 5049 48be 4923 0d3e
00000120: ee13 c93d 5473 7abd e620 8abe b5a9 383d
00000130: 6758 023e eae4 e7bd 8e4a 883c 3d88 c0bb
00000140: 0b50 72bd a879 963d 0ae0 35be 3cf1 023e
00000150: 084d 6cbd 3e13 6abe 0f5c 09be b7d9 303e
00000160: 7ef1 f03d 453d 093d e450 0d3d 23c1 3e3d
00000170: de69 043e c7f4 893c f3c9 153e 8e5b 963d
00000180: 657d 213e 4d83 6f3d 8d6d 053e cf0f a1bd
00000190: 8749 0ebe dc0a 8cbd 28ab 96be 19af 98bb
000001a0: 654d b6bd bc38 d73d fbe1 d7bc 849b 8b3d
000001b0: 679a 2abe f980 ac3d b8bb 2a3d 5e35 a93d
000001c0: 27a1 93bd 0c82 b2bd 23d4 bfbd c493 00bb
000001d0: 3606 7cbe 47e6 18be 0476 2c3d 9d85 92be
000001e0: f191 5d3d 0add db3d e41e 36be 5592 193d
000001f0: 7e68 d7bd ba68 a63d d832 49be 0d2a f93c

sequential_8_1/dense_24_1/MatMul f4 [128, 42]
0.09241599 -0.046957105 -0.15400927 0.0061847195 -0.16385052 -0.055082086 0.07038798 0.08137046
0.48431346 0.42094612 0.2656116 -0.16080014 0.32387817 0.065164715 0.83337015 -0.04030246
0.91455215 -0.18582231 -0.03965567 0.001899031 0.0762554 0.11137722 -0.55250573 0.11350028
-0.617408 -0.25291765 0.15838723 -0.08961383 0.45423567 0.34591535 0.28895447 0.17912222
0.23214704 -0.12742805 0.16792335 0.014018826 -0.4393382 0.31876558 -0.9591292 0.4295826
-1.5813656 0.22133355 -0.1296833 -0.008362174 0.107334614 -0.0701658 0.36809325 -0.15342171
0.6072999 0.44175965 0.726184 0.46266055 0.21962619 -0.16152696 -0.059573315 0.051757235
-0.40993717 -0.07826197 -0.4448159 0.29822272 0.42180657 0.25335175 0.057946596 0.062579505
-0.18446359 -0.025274618 -0.06518361 -0.18132812 -0.053633224 0.10882938 -0.07677193 0.1392954
0.11930397 -0.19442283 0.28285977 -0.5220416 -0.097908415 0.25068495 -0.23889111 -0.05185322
-0.32678238 -0.4652608 -0.18454339 -0.8998178 -0.15729354 -0.1736313 0.09537215 -0.39620155
0.30481768 -0.14598311 0.012589782 -0.042578366 -0.24667218 0.12610558 0.1181007 0.34659907
-0.015831625 -0.3064644 -0.35944787 -0.4520773 -0.2198432 -0.42303598 0.26274 0.06521701
-0.08395661 0.08560289 -0.14069757 -0.015312656 -0.28357673 0.576745 0.039815687 0.09198831
0.20743328 -0.07463699 0.09655807 0.19313593 0.3799231 0.5396046 -0.3009925 -0.052674975
-0.35096693 -0.31365034 -0.052121777 -0.24261495 -0.02395374 -0.050115034 0.019383907 -0.029306248
-0.24911614 0.19259092 -0.11144886 0.26341346 -0.16467613 0.16968429 0.2957279 -0.13096356
0.031572126 -0.41610563 0.06500994 0.07055246 0.34567136 0.14189368 0.5937642 0.046463277
0.050382707 -0.29332468 -0.033270866 0.12181089 -0.42527443 -0.14849445 -0.7026414 -0.7397592
0.008578575 -0.20743881 0.02669693 0.28962547 -0.30276173 0.03406454 -0.39930424 -0.1592719
0.040516954 -0.080000766 0.25100634 0.6381756 0.09917252 0.31305715 0.10039724 0.20186277
0.09167254 0.17843813 -0.009074697 -0.1903389 -0.11437236 0.11902809 -0.057123087 0.021440726
-0.06735063 -0.27420217 -0.1789585 -0.83387244 0.20142794 0.2791265 0.41835803 0.60644114
0.4125989 0.857389 -0.17168725 -0.70157415 -0.15719004 -0.14405884 -0.080004334 -0.1749545
-0.2829226 0.10239495 0.040507566 -0.5469647 0.1234483 -0.120189875 -0.37310746 0.1627797
-0.5374243 0.042964835 0.20618556 -0.46639296 0.16432555 0.15221527 0.0720199 -0.20362443
-0.017700536 0.13613011 0.026724353 0.17651993 0.09624579 -0.24818923 0.14871012 -0.013808949
0.095086254 0.19912584 -0.2616757 0.7930568 0.15203512 0.29713625 0.24430485 -0.14271283
-0.023777721 -0.58950424 0.06613603 -0.96188176 0.07303561 0.34086868 0.26458144 0.18674527
-0.12787095 0.073751524 -0.27003103 0.1826873 -0.043874454 0.32449117 -0.108120166 0.10423137
-0.07543365 0.2880987 -0.4275024 -0.07416146 0.16974716 -0.003906697 0.1963666 0.03431821
-0.032083105 -0.06873272 -0.23868924 -0.30321777 -0.15935326 -0.057329908 -0.14905201 -0.10397667
00000000: 9844 bd3d 1856 40bd 9bb4 1dbe 30a9 ca3b
00000010: 6ec8 27be c19d 61bd 9327 903d 8ea5 a63d
00000020: eff7 f73e 4086 d73e 3efe 873e cba8 24be
00000030: 5cd3 a53e 1475 853d bf57 553f 3114 25bd
00000040: 1720 6a3f 3448 3ebe fc6d 22bd e8e8 f83a
00000050: cb2b 9c3d bd19 e43d 0471 0dbf d672 e83d
00000060: 730e 1ebf 6c7e 81be 4330 223e 7587 b7bd
00000070: 9491 e83e d11b b13e d7f1 933e d16b 373e
00000080: f4b7 6d3e 807c 02be 19f4 2b3e 38af 653c
00000090: f0f0 e0be 3e35 a33e 7e89 75bf 40f2 db3e
000000a0: 306a cabf 43a5 623e b3cb 04be 8001 09bc
000000b0: 40d2 db3d 16b3 8fbd b876 bc3e 951a 1dbe
000000c0: 0278 1b3f 522e e23e 32e7 393f d8e1 ec3e
000000d0: b0e5 603e 5367 25be 2603 74bd 65ff 533d
000000e0: 49e3 d1be d047 a0bd e9be e3be a6b0 983e
000000f0: 08f7 d73e 52b7 813e 6959 6d3d af29 803d
00000100: 06e4 3cbe b70c cfbc fc7e 85bd 14ae 39be
00000110: 83ae 5bbd f0e1 de3d 9a3a 9dbd 74a3 0e3e
00000120: a455 f43d c716 47be ffd2 903e 85a4 05bf
00000130: 3584 c8bd c759 803e df9f 74be 0b64 54bd
00000140: 0550 a7be aa36 eebe f1f8 3cbe 765a 66bf
00000150: 8f11 21be 67cc 31be 7952 c33d eeda cabe
00000160: 1011 9c3e 997c 15be 5f45 4e3c a766 2ebd
00000170: a297 7cbe d221 013e c8de f13d 6f75 b13e
00000180: 53b1 81bc e7e8 9cbe 8d09 b8be ad76 e7be
00000190: 931e 61be 2c98 d8be db85 863e 7f90 853d
000001a0: 71f1 abbd 9150 af3d 0613 10be efe1 7abc
000001b0: f830 91be 8fa5 133f c615 233d 5e64 bc3d
000001c0: 6469 543e 47db 98bd 3dc0 c53d 6dc5 453e
000001d0: 4885 c23e 8723 0a3f b01b 9abe b7c1 57bd
000001e0: f0b1 b3be c796 a0be a57d 55bd 0e70 78be
000001f0: a23a c4bc 6c45 4dbd 00cb 9e3c a813 f0bc
00000200: 4d18 7fbe 8e36 453e 4d3f e4bd 21de 863e
00000210: dca0 28be b8c1 2d3e a669 973e 501b 06be
00000220: c651 013d cc0b d5be ee23 853d cf7d 903d
00000230: d6fb b03e 944c 113e ee00 183f 4750 3e3d
00000240: 195e 4e3d a72e 96be 0847 08bd fd77 f93d
00000250: 92bd d9be ee0e 18be 4fe0 33bf dc60 3dbf
00000260: 278d 0c3c d76a 54be 85b3 da3c ca49 943e
00000270: 9603 9bbe 4287 0b3d 9b71 ccbe 2c18 23be
00000280: 1bf5 253d 71d7 a3bd e783 803e 7a5f 233f
00000290: f61a cb3d 0749 a03e 119d cd3d 1db5 4e3e
000002a0: d0be bb3d 7cb8 363e 0aae 14bc 33e8 42be
000002b0: 0e3c eabd 00c5 f33d e6f9 69bd 76a4 af3c
000002c0: 21ef 89bd 3a64 8cbe e640 37be aa78 55bf
000002d0: 2043 4e3e abe9 8e3e 0633 d63e ba3f 1b3f
000002e0: 2a40 d33e d87d 5b3f c8ce 2fbe 5d9a 33bf
000002f0: 6df6 20be 2984 13be 50d9 a3bd 4627 33be
00000300: 3bdb 90be 72b4 d13d 43eb 253d e105 0cbf
00000310: 76d2 fc3d 1c26 f6bd f107 bfbe b9af 263e
00000320: a494 09bf e5fb 2f3d 4f22 533e 0fcb eebe
00000330: f544 283e 52de 1b3e 2b7f 933d ec82 50be
00000340: b700 91bc b165 0b3e 08ed da3c a4c1 343e
00000350: 831c c53d 5125 7ebe 7747 183e ee3e 62bc
00000360: 95bc c23d a5e7 4b3e 5bfa 85be c505 4b3f
00000370: 18af 1b3e 3e22 983e 0d2b 7a3e 5023 12be
00000380: 7fc9 c2bc c0e9 16bf 5472 873d e23d 76bf
00000390: b293 953d 5786 ae3e 3877 873e 273a 3f3e
000003a0: 9af0 02be 0a0b 973d 8241 8abe 6112 3b3e
000003b0: b3b5 33bd b523 a63e 1b6e ddbd 4277 d53d
000003c0: f57c 9abd ac81 933e 98e1 dabe f7e1 97bd
000003d0: 33d2 2d3e c003 80bb 5314 493e 4091 0c3d
000003e0: 9369 03bd bec3 8cbd f46a 74be 5c3f 9bbe
000003f0: 802d 23be c4d2 6abd 17a1 18be b8f1 d4bd
