hand_gesture_model.tflite (tflite, 63384 bytes, 6 tensors)

arith.constant f4 [24, 64]
-0.9713819 0.13368629 0.11891166 0.12944318 0.08059784 0.07865386 0.18989486 0.1690863
0.18684042 -0.84655297 0.16004016 0.38805494 -0.24746431 -0.11371652 -0.036130294 0.18354827
-0.667265 -0.02790604 0.13356732 0.12826604 0.2054922 0.12696435 0.33345348 0.07349869
-1.3420273 0.20843425 -0.6263856 0.17208664 0.16712624 0.12088184 0.008514213 -1.3739997
-1.1079429 -1.0540677 -1.368472 0.15992413 -0.8282417 0.2937253 0.107794255 0.1591636
-0.096968204 -1.0717586 0.07846572 -0.15401134 -1.1624624 0.1467615 -0.7848237 -0.39240268
0.13719727 0.08886601 -0.19370325 0.22892976 -0.601089 0.17502661 0.17177273 -0.30896062
-0.11692616 0.14409396 0.11733156 0.1686313 -0.8055256 0.17025757 -0.075483985 0.10528897
-1.3032349 -0.9581158 0.08465435 -1.566345 0.03407479 0.28243342 -0.08864036 -0.8107442
-1.1911154 -0.81252563 0.2296065 -0.4891596 0.05983157 -1.1246059 -1.31253 0.39389056
-1.4720311 0.203999 -0.79856855 0.17183034 -0.046843506 -0.913638 0.09006891 0.23618262
-1.0792067 0.22352038 0.5463974 0.25426823 -1.8520204 -0.049465965 -1.2277142 -0.99884796
-0.7214533 -0.45186695 -0.9067095 0.2456862 -0.5890736 0.3005859 -0.14953014 0.33189154
0.031063229 -1.0399297 0.13655375 -0.6897417 -1.2366421 -1.1518574 -0.3414142 0.18951267
0.0546622 -1.6508204 -0.52040637 0.22819448 0.28057024 0.21608242 -1.2158866 0.32109523
-1.8342319 0.18681109 0.23787276 0.25634328 0.52691376 0.23871225 -1.7030976 0.07800682
-0.40057072 -0.7719965 0.13753733 -1.2399694 -1.6170895 -0.8950376 -1.2857314 -0.025745474
-0.6620877 -0.80914944 0.22550063 -1.4474355 -0.13509205 -0.75241756 -0.55491287 0.25291368
0.20896533 0.14986955 -1.0917864 -0.042972267 -1.602145 0.13511823 -0.621855 0.25296983
-1.0546278 0.25337952 0.047904596 0.20640245 -1.0043372 0.058084633 0.09435319 -0.9109287
-1.4207433 -1.0279353 0.2642147 0.24265935 0.08775019 0.3147885 -1.0730907 -0.03746827
0.032192793 -0.95552033 -0.5775896 -0.46587756 -0.8398762 0.22398418 -0.026504338 0.24526519
-0.087614834 0.060535345 0.27062985 0.23505178 0.12578419 0.1765757 -0.015979549 -0.9610145
-1.3385153 0.16352779 0.2596618 0.25112316 0.3751634 0.18697019 -0.73203176 -1.1013845
-1.2015893 -0.2200986 0.15778662 -0.38955933 -0.7381985 -0.1905837 -0.73591673 0.16376972
-0.7640932 -0.19228706 0.19645028 -0.3658328 -0.5499135 -0.042483516 -1.0657507 -0.94046295
0.024322312 0.23707598 -0.99701506 0.30820635 -0.5062806 0.23473638 -0.5471825 0.1204763
-0.58902526 0.10154019 -0.66254175 -0.8426795 -0.8991951 0.22245252 0.23714286 -0.08780003
0.24034387 -1.0202305 -0.009288722 0.19607177 0.4227648 0.1636073 0.17933092 0.25822982
0.1555064 0.2837187 -0.03830255 -0.7192035 -1.2456176 0.22066331 0.2318572 0.22212489
-0.31940737 0.18011644 0.38118455 0.072518714 -1.6356496 -1.4277169 0.24705069 0.21174903
0.023591496 -0.096915066 0.15064679 0.14963059 -1.0406513 0.14405751 -1.5571069 -0.2383537
00000000: 7cac 78bf 0fe5 083e f587 f33d c18c 043e
00000010: 7b10 a53d 4615 a13d cc73 423e f624 2d3e
00000020: 1853 3f3e b2b7 58bf 91e1 233e 23af c63e
00000030: 4967 7dbe 35e4 e8bd 5cfd 13bd 14f4 3b3e
00000040: e1d1 2abf 359b e4bc dfc5 083e 2c58 033e
00000050: 8c6c 523e f102 023e 6aba aa3e 7b86 963d
00000060: 8dc7 abbf ca6f 553e cf5a 20bf 7b37 303e
00000070: 2423 2b3e e690 f73d 337f 0b3c 39df afbf
00000080: 13d1 8dbf b1eb 86bf 172a afbf 27c3 233e
00000090: a607 54bf 2a63 963e 3cc3 dc3d c8fb 223e
000000a0: 4497 c6bd 632f 89bf a3b2 a03d 26b5 1dbe
000000b0: 91cb 94bf a648 163e 35ea 48bf 01e9 c8be
000000c0: 717d 0c3e 62ff b53d 255a 46be 906c 6a3e
000000d0: f8e0 19bf 2d3a 333e 31e5 2f3e 1630 9ebe
000000e0: fc76 efbd 5e8d 133e 874b f03d afad 2c3e
000000f0: ed36 4ebf 0058 2e3e 5997 9abd bea1 d73d
00000100: 67d0 a6bf 1447 75bf 435f ad3d fe7d c8bf
00000110: 0292 0b3d 1d9b 903e 1489 b5bd ef8c 4fbf
00000120: 7876 98bf ae01 50bf f71d 6b3e 2173 fabe
00000130: f311 753d 16f3 8fbf fc00 a8bf 06ac c93e
00000140: 846b bcbf 1de5 503e fd6e 4cbf 4bf4 2f3e
00000150: fade 3fbd 2ee4 69bf 0c76 b83d dbd9 713e
00000160: 7223 8abf 87e2 643e b3e0 0b3f 722f 823e
00000170: 010f edbf d39c 4abd bd25 9dbf 80b4 7fbf
00000180: 2ab1 38bf 1b5b e7be 1d1e 68bf 2a95 7b3e
00000190: 87cd 16bf 65e6 993e 6e1e 19be b0ed a93e
000001a0: 5078 fe3c 6b1c 85bf bfd4 0b3e e992 30bf
000001b0: 4a4a 9ebf 1070 93bf d8cd aebe 9c0f 423e
000001c0: 79e5 5f3d 154e d3bf 5a39 05bf d0ab 693e
000001d0: e7a6 8f3e b644 5d3e 2ca2 9bbf 9866 a43e
000001e0: 1cc8 eabf 684b 3f3e eb94 733e 6d3f 833e
000001f0: d2e3 063f fc70 743e 1aff d9bf 0ac2 9f3d
00000200: 9b17 cdbe 90a1 45bf 96d6 0c3e 51b7 9ebf
00000210: cafc cebf 2f21 65bf d992 a4bf 2ce8 d2bc
00000220: 947e 29bf 6b24 4fbf a3e9 663e 9145 b9bf
00000230: 9255 0abe 709e 40bf c50e 0ebf e77d 813e
00000240: 02fb 553e 6777 193e a8bf 8bbf b003 30bd
00000250: 1613 cdbf 6f5c 0a3e e431 1fbf 4385 813e
00000260: 0bfe 86bf f6ba 813e 9c37 443d 2a5b 533e
00000270: 1f8e 80bf 27ea 6d3d 3f3c c13d a032 69bf
00000280: ebda b5bf 6293 83bf 2647 873e b17b 783e
00000290: 5fb6 b33d f52b a13e 095b 89bf 5478 19bd
000002a0: 97dc 033d fb9c 74bf e9dc 13bf 8187 eebe
000002b0: 2002 57bf 1c5c 653e a01f d9bc cc26 7b3e
000002c0: 686f b3bd e9f3 773d ff8f 8a3e 6ab1 703e
000002d0: 92cd 003e 43d0 343e 8be7 82bc 0c05 76bf
000002e0: 7854 abbf d473 273e 64f2 843e 3793 803e
000002f0: 6b15 c03e 1d75 3f3e 6f66 3bbf 2bfa 8cbf
00000300: aecd 99bf 8761 61be d192 213e 5274 c7be
00000310: 94fa 3cbf 6028 43be 0a65 3cbf 40b3 273e
00000320: 9d9b 43bf e6e6 44be 432a 493e 704e bbbe
00000330: 22c7 0cbf 3203 2ebd 856a 88bf 2ec2 70bf
00000340: 963f c73c 0cc4 723e 613c 7fbf 39cd 9d3e
00000350: 9b9b 01bf bc5e 703e 2714 0cbf 47bc f63d
00000360: 5cca 16bf 4ef4 cf3d 569c 29bf d8b9 57bf
00000370: a631 66bf 98ca 633e 94d5 723e 81d0 b3bd
00000380: b41c 763e ea96 82bf b92f 18bc 0ac7 483e
00000390: a174 d83e ac88 273e 86a2 373e b336 843e
000003a0: 123d 1f3e 9443 913e 22e3 1cbd b81d 38bf
000003b0: 6670 9fbf 90f5 613e f96b 6d3e b574 633e
000003c0: 5d89 a3be 7270 383e 9f2a c33e b184 943d
000003d0: f75c d1bf 6dbf b6bf dbfa 7c3e bdd4 583e
000003e0: f442 c13c 687b c6bd 2743 1a3e c338 193e
000003f0: 1034 85bf d083 133e 474f c7bf fe12 74be

arith.constant1 f4 [64, 128]
0.32844064 -0.32453075 -0.0021682521 0.093361646 0.5219175 -0.20002675 -1.3476157 0.051363558
-0.70642245 0.37708429 0.58242077 -0.018907428 -0.07089144 0.077144414 0.15152818 0.89445657
-1.0117921 0.36311617 -0.12185821 0.14007033 0.15645777 -0.4301787 -0.89679414 0.13411112
-0.7469375 0.28140435 0.104859605 0.44983405 0.40547666 -0.11728085 -1.3543154 -0.6627535
-0.20743604 0.19582115 0.012799002 0.55304086 0.28858086 -0.07940079 -0.1324009 -0.1472091
0.3013355 1.1147395 -0.5708868 0.25142992 0.2059754 0.61163116 -0.12966135 0.26638764
-0.6740162 0.32466382 0.21249472 0.40852427 -0.23810826 -0.53349644 0.16544017 0.08980372
0.7177604 -0.1417308 0.66112554 0.16920029 -0.057529952 -0.48320404 0.35301 -0.23173356
-0.039634462 0.2711239 0.17548218 0.33890867 0.17395373 -0.5892821 -0.0916256 -0.060037296
0.110145874 -0.63685447 0.5900528 0.027428744 0.0356562 0.04426074 0.12407661 -0.23421948
0.1265301 0.24522565 -0.17341232 -0.012791917 -0.2421805 -1.5132314 -0.024997644 -0.76602864
0.22560374 -0.13373123 0.2142377 0.18065646 -0.026936118 0.16187046 0.30917692 -1.3185246
0.3115357 -1.1552032 0.39194092 -0.07391353 0.27289554 0.120386876 0.09070284 -0.02760413
0.065645665 -0.5062659 -0.15333107 -0.6511071 0.32744434 0.21119398 -0.3083821 0.12804866
-0.43331447 0.2555795 0.26717612 -0.20956224 0.29737338 0.29478964 0.030230612 0.15289545
-0.88284653 0.9091776 -1.0424259 -0.62972194 0.530445 0.1343273 -0.30404922 0.06571193
-0.089097 -0.020936305 0.25817454 0.36781046 0.48649922 0.023650745 -0.8694094 -0.27716544
0.23881684 0.14820954 0.15289198 -0.23821281 0.13087027 0.27629682 0.12055298 0.18545303
-1.051758 0.17362298 0.31999308 -0.00075529783 -0.36446223 -0.2590156 -0.22814523 0.05585411
0.060215406 0.20641936 0.024537258 0.036248893 0.19382347 0.110558115 -0.6658872 -0.37985992
0.25948864 0.2533257 -0.19269536 0.3568156 0.1872923 0.11836739 0.6021629 0.28923503
0.09024503 0.55593944 0.4777825 0.5158026 -0.068867005 0.7259098 0.056843024 -0.39313614
-0.022706416 0.4520855 0.49422845 0.30242163 0.51196295 -0.41118097 0.11836562 -0.01224888
0.033985626 0.22302757 0.14210019 0.247844 0.017907819 -0.65830207 -0.20058152 -0.66766196
0.51451504 -0.034832828 -0.0068639745 -0.19497049 0.061839066 0.04546479 0.2737567 -0.12545273
-0.09368728 0.10977137 0.354692 -0.063137785 0.25298592 -0.21516539 -0.3443925 0.17671877
-0.06700995 0.047983855 -0.33051282 -0.08342313 0.5961522 -0.60134196 -0.11701228 0.23335806
-0.21808995 0.40816265 0.57284266 -0.04881362 -0.268972 0.09559658 -0.14827757 -1.2805028
0.0011608728 -0.45098117 0.16190253 -0.11753543 -0.11047493 0.21516985 -0.31464213 -0.42696005
0.009693938 -0.006629847 -0.29717126 0.24424008 0.8345305 0.8590076 -0.48949933 0.36592704
-0.69853085 -0.09816521 -0.18493216 0.26613733 0.15817158 -0.16076437 -0.112511806 0.4280712
0.10439144 0.2501854 0.08177297 -0.34382617 0.6243859 0.29239178 0.23897469 0.14066571
00000000: 5f29 a83e e528 a6be 3c19 0ebb 6434 bf3d
00000010: 639c 053f d0d3 4cbe ac7e acbf 9862 523d
00000020: 1ad8 34bf 3111 c13e 8719 153f c0e3 9abc
00000030: 882f 91bd e4fd 9d3d 342a 1b3e 1bfb 643f
00000040: 6782 81bf 5dea b93e cc90 f9bd 996e 0f3e
00000050: 7736 203e 6240 dcbe 4d94 65bf 6d54 093e
00000060: 4c37 3fbf 3b14 903e a2c0 d63d a650 e63e
00000070: a39a cf3e f130 f0bd 355a adbf 37aa 29bf
00000080: 1d6a 54be 5785 483e e8b2 513c 1694 0d3f
00000090: dfc0 933e e29c a2bd 1a94 07be fbbd 16be
000000a0: a648 9a3e c9af 8e3f a325 12bf 6cbb 803e
000000b0: 37eb 523e dc93 1c3f f2c5 04be f663 883e
000000c0: 538c 2cbf 563a a63e 3798 593e 182a d13e
000000d0: a7d2 73be 3993 08bf 2669 293e 03eb b73d
000000e0: 25bf 373f e121 11be 863f 293f d742 2d3e
000000f0: 87a4 6bbd 8566 f7be babd b43e 904b 6dbe
00000100: bf57 22bd c0d0 8a3e 9ab1 333e 7085 ad3e
00000110: ed20 323e 31db 16bf 34a6 bbbd abe9 75bd
00000120: 2994 e13d e508 23bf b30d 173f 3fb2 e03c
00000130: 3c0c 123d c04a 353d e11b fe3d 3bd7 6fbe
00000140: 1b91 013e 6f1c 7b3e 0093 31be 3095 51bc
00000150: 2afe 77be 91b1 c1bf dcc7 ccbc 741a 44bf
00000160: ab04 673e d7f0 08be 2161 5b3e 02fe 383e
00000170: 22a9 dcbc 5fc1 253e 704c 9e3e 6ac5 a8bf
00000180: 9b81 9f3e b3dd 93bf 7bac c83e fa5f 97bd
00000190: f7b8 8b3e 658d f63d 69c2 b93d 0e22 e2bc
000001a0: 3c71 863d a49a 01bf d202 1dbe f4ae 26bf
000001b0: c9a6 a73e 3c43 583e 42e4 9dbe 301f 033e
000001c0: 65db ddbe 51db 823e 4fcb 883e 7c97 56be
000001d0: 5341 983e abee 963e 30a6 f73c a090 1c3e
000001e0: 3b02 62bf ddbf 683f 366e 85bf 7535 21bf
000001f0: 3ecb 073f 198d 093e 57ac 9bbe fa93 863d
00000200: 7d78 b6bd 9d82 abbc 742f 843e a751 bc3e
00000210: 6d16 f93e 35bf c13c 9d91 5ebf a1e8 8dbe
00000220: 678c 743e 3ec4 173e b78f 1c3e 0fee 73be
00000230: db02 063e c776 8d3e 7be4 f63d 66e7 3d3e
00000240: 02a0 86bf 39ca 313e 22d6 a33e 2eff 45ba
00000250: cb9a babe b19d 84be e79e 69be 47c7 643d
00000260: 6ea4 763d 995f 533e 5c02 c93c b879 143d
00000270: a979 463e 4b6c e23d 9577 2abf 007d c2be
00000280: b2db 843e e8b3 813e ef51 45be 89b0 b63e
00000290: 8dc9 3f3e 9a6a f23d 5927 1a3f 9d16 943e
000002a0: 63d2 b83d 0c52 0e3f e89f f43e a40b 043f
000002b0: 250a 8dbd 3ad5 393f 3bd4 683d 2449 c9be
000002c0: ce02 babc c077 e73e 830b fd3e 02d7 9a3e
000002d0: 0110 033f 5086 d2be ad69 f23d 87af 48bc
000002e0: 8334 0b3d 5761 643e b682 113e d1ca 7d3e
000002f0: 6bb3 923c 7c86 28bf 3e65 4dbe e5eb 2abf
00000300: 42b7 033f deac 0ebd 31eb e0bb 58a6 47be
00000310: f64a 7d3d 4a39 3a3d d729 8c3e ae76 00be
00000320: 1edf bfbd d0cf e03d 319a b53e 624e 81bd
00000330: 5f87 813e 5154 5cbe 3754 b0be c4f5 343e
00000340: 833c 89bd b88a 443d fa38 a9be bfd9 aabd
00000350: 6e9d 183f 8cf1 19bf 22a4 efbd 6af5 6e3e
00000360: f952 5fbe b2fa d03e d1a5 123f caf0 47bd
00000370: b3b6 89be 24c8 c33d 13d6 17be 84e7 a3bf
00000380: 6d28 983a 01e7 e6be c7c9 253e 6ab6 f0bd
00000390: ae40 e2bd 7c55 5c3e c618 a1be 829a dabe
000003a0: 53d3 1e3c 303f d9bb d526 98be 121a 7a3e
000003b0: caa3 553f ece7 5b3f a89f fabe ca5a bb3e
000003c0: ebd2 32bf d70a c9bd db5e 3dbe 2743 883e
000003d0: bbf7 213e 6a9f 24be 976c e6bd 262c db3e
000003e0: 2ecb d53d 4d18 803e 9678 a73d fc09 b0be
000003f0: c1d7 1f3f 60b4 953e c8b5 743e ac0a 103e

arith.constant2 f4 [24]
-0.12158108 0.41206697 0.27442458 -0.2173785 0.77102804 -0.2140398 0.8956055 -0.35087937
-0.096052304 -0.45923406 0.077920616 -0.28256458 -0.7299202 0.37088022 0.07138522 0.03884561
-0.2331353 -0.018727284 0.027906904 0.65857184 0.040752206 -0.35805634 -0.32821402 -0.6769891
00000000: 80ff f8bd 71fa d23e 6181 8c3e 7898 5ebe
00000010: 1862 453f 402d 5bbe 6746 653f 76a6 b3be
00000020: 12b7 c4bd ba20 ebbe d894 9f3d 4eac 90be
00000030: 0ddc 3abf 03e4 bd3e 6a32 923d 931c 1f3d
00000040: 05bb 6ebe f669 99bc 059d e43c 2a98 283f
00000050: c9eb 263d 2953 b7be ab0b a8be 284f 2dbf

sequential_1/dense_1_2/BiasAdd/ReadVariableOp f4 [64]
0.3153381 0.07583308 0.14071982 -0.12622723 0.12453425 0.09474078 0.24944131 0.059707113
-0.11604834 -0.4827688 0.16712002 -0.148304 -0.12175633 0.1352475 -0.1679492 0.39580095
0.29765463 0.5866179 -0.45007843 -0.22759075 0.06897263 0.09851707 -0.024238909 -0.27325
-0.2161413 0.0051089246 0.052772094 -0.14292146 0.42162865 0.4213223 0.29816213 0.20365727
0.11826207 0.06292595 0.27399412 -0.14309311 0.04599292 0.20203844 0.08370964 0.5122378
-0.34929508 0.1518749 0.09660708 -0.4240754 0.17314686 0.26244804 -0.0021101665 0.238867
-0.2079477 0.14112741 -0.07415361 -0.022951614 0.19573744 -0.06108634 0.39691094 0.26360586
0.48424765 -0.04235389 0.44876683 0.31722814 0.26141122 0.2429072 0.11146044 0.35684055
00000000: ff73 a13e 604e 9b3d db18 103e b641 01be
00000010: d00b ff3d 7407 c23d 8b6d 7f3e 728f 743d
00000020: c1aa edbd 792d f7be 8321 2b3e 01dd 17be
00000030: 625b f9bd 527e 0a3e e0fa 2bbe 6ca6 ca3e
00000040: 3066 983e 972c 163f ae70 e6be 8d0d 69be
00000050: 8641 8d3d 51c3 c93d ad90 c6bc 6de7 8bbe
00000060: 2554 5dbe c468 a73b 8d27 583d 015a 12be
00000070: b6df d73e 8eb7 d73e b5a8 983e 888b 503e
00000080: 6233 f23d 52df 803d f548 8c3e 0087 12be
00000090: 1263 3c3d 2ae3 4e3e f66f ab3d 0422 033f
000000a0: ced6 b2be 1885 1b3e efd9 c53d 6920 d9be
000000b0: 694d 313e 975f 863e b84a 0abb 8d99 743e
000000c0: 3ef0 54be b483 103e d9dd 97bd 0605 bcbc
000000d0: 656f 483e ac35 7abd e937 cb3e 59f7 863e
000000e0: 4fef f73e 467b 2dbd c4c4 e53e ba6b a23e
000000f0: b1d7 853e aabc 783e 5f45 e43d ceb3 b63e

sequential_1/dense_1/BiasAdd/ReadVariableOp f4 [128]
0.0909662 0.031314217 0.009628142 -0.1884113 0.11407784 -0.045239322 -0.16999757 0.110612705
-0.046218272 -0.10999679 -0.13421766 -0.025926588 -0.05865502 -0.05835804 -0.06478357 -0.05473682
-0.0832671 -0.205847 0.13561518 -0.089469425 -0.0032730596 -0.14330293 0.113767736 -0.09162329
0.09329232 -0.1444018 0.039230525 0.03998213 -0.11055974 -0.07899682 0.09424333 0.0074738315
-0.10118791 -0.051609185 -0.021877527 -0.17572455 -0.039040267 -0.122890666 -0.074698746 0.0332901
0.027319664 -0.1355367 -0.09720102 -0.1083877 0.10137614 -0.47156525 -0.110157184 0.05254156
0.11546774 -0.28026053 -0.14462355 0.022103297 -0.44976148 -0.009977776 0.13047045 0.079428546
-0.12140828 -0.066521406 -0.1666874 0.15508547 0.061391823 0.015520085 -0.29504204 -0.1147747
-0.22448309 0.06899012 -0.15012622 -0.036083553 0.05941041 -0.07505893 -0.046355866 -0.020706726
-0.013034992 0.010887746 -0.20831858 0.07791062 -0.052649997 0.105388306 0.08430423 -0.3246548
0.10938187 -0.1620724 0.103743866 0.049590938 -0.40573025 0.10676462 0.056966517 -0.15818089
0.07124987 0.043101605 -0.09905245 0.05623214 0.008557962 0.10509738 0.018187115 0.017784499
0.029437402 0.07443569 0.029836573 -0.0957064 -0.09637788 0.14164795 0.030641325 0.058877695
-0.1246573 0.13302548 -0.090013236 0.14189829 -0.29011452 -0.43605128 -0.19048595 0.007063903
-0.030877335 -0.080885425 0.030004203 0.09387065 -0.18659003 0.13400397 0.03430873 -0.2542568
0.09126835 -0.22683293 0.08872774 0.17849657 -0.27598986 -0.06424289 0.12618026 0.10568563
00000000: 7d4c ba3d 5643 003d 5bbf 1d3c e4ee 40be
00000010: a4a1 e93d de4c 39bd d813 2ebe ea88 e23d
00000020: 5f4f 3dbd ff45 e1bd 5b70 09be ff63 d4bc
00000030: 3f40 70bd d708 6fbd 40ad 84bd b733 60bd
00000040: f187 aabd 8ec9 52be b5de 0a3e bf3b b7bd
00000050: d480 56bb 01be 12be 0fff e83d fea4 bbbd
00000060: 0b10 bf3d 11de 13be 30b0 203d 4dc4 233d
00000070: 256d e2bd 16c9 a1bd a602 c13d 0be7 f43b
00000080: 9b3b cfbd 2764 53bd 8038 b3bc 23f1 33be
00000090: b0e8 1fbd 1aae fbbd a8fb 98bd 335b 083d
000000a0: 7dcd df3c 22ca 0abe 5411 c7bd 5ffa ddbd
000000b0: 4b9e cf3d 0071 f1be 179a e1bd d235 573d
000000c0: 5a7a ec3d 4f7e 8fbe 3218 14be f911 b53c
000000d0: 2347 e6be d379 23bc 0c9a 053e 6fab a23d
000000e0: e8a4 f8bd 603c 88bd 1ab0 2abe bace 1e3e
000000f0: fe75 7b3d f447 7e3c c00f 97be ff0e ebbd
00000100: e5de 65be b14a 8d3d b0ba 19be 59cc 13bd
00000110: 5458 733d 7fb8 99bd a6df 3dbd 27a1 a9bc
00000120: b890 55bc 8462 323c 7751 55be 9a8f 9f3d
00000130: 86a7 57bd d3d5 d73d b2a7 ac3d 2739 a6be
00000140: 9a03 e03d 4ff6 25be aa77 d43d de1f 4b3d
00000150: e0bb cfbe 69a7 da3d b955 693d 2cfa 21be
00000160: 74eb 913d 4f8b 303d 03dc cabd ac53 663d
00000170: b236 0c3c 4c3d d73d 25fd 943c ccb0 913c
00000180: b526 f13c bd71 983d d46b f43c b801 c4bd
00000190: c461 c5bd 290c 113e 8403 fb3c bd29 713d
000001a0: 544c ffbd d537 083e dc58 b8bd c94d 113e
000001b0: e489 94be 1d42 dfbe c00e 43be 5078 e73b
000001c0: 77f2 fcbc 42a7 a5bd 60cb f53c 413f c03d
000001d0: 7511 3fbe 5638 093e 5087 0c3d f32d 82be
000001e0: e7ea ba3d e446 68be e4b6 b53d cec7 363e
000001f0: 8b4e 8dbe c791 83bd 6635 013e b571 d83d

sequential_1/dense_1/MatMul f4 [128, 42]
0.07199213 -0.068737336 0.012478796 0.45686224 -0.12701079 0.16878262 -0.054379653 -0.02104365
-0.13014983 -0.16696985 0.08812425 0.55521554 0.21140648 0.04315721 -0.16933137 -0.60173875
-0.20030434 -0.85786015 0.13470446 0.2810212 0.21685958 0.04249644 0.61233366 0.30819595
0.5841769 0.22893897 -0.08876901 0.3870436 -0.23866968 0.08872954 -0.21513222 0.054545417
-0.23468296 -0.13355228 -0.09181932 -0.08123392 -0.3661895 -0.029572545 -0.35216376 0.33766252
-0.35569012 0.1240843 0.046088427 -0.0950811 0.5139855 -0.1699956 0.11537483 -0.05133096
-0.1410173 -0.2595623 -0.16346066 -0.43810496 0.076627225 0.35371095 -0.0977774 0.07282643
-0.2119751 0.44601256 -0.46201658 0.5530378 0.06319989 0.32141024 0.015647225 0.50253177
-0.055555146 0.21169241 -0.102941 0.24551938 0.2504639 0.37371188 0.17762828 0.0014367881
0.7005694 -0.21911325 1.3158814 -0.40887946 -0.073800914 0.3309046 0.017025193 -0.2913169
0.46052817 -0.43971333 0.8434839 -0.5459972 0.11520651 -0.1297529 -0.2793555 0.6105092
-0.080632985 0.60427296 -0.16668586 -0.016176928 -0.105325155 -0.5042632 0.2680304 -0.019054143
0.18434866 -0.07710589 -0.0098018 -0.23734014 0.16666402 -0.33286232 0.1624151 0.014804918
-0.105984025 -0.46775076 0.19884203 -0.16026266 0.22277752 -0.20067778 0.19741218 -0.25091946
0.20454231 -0.03844965 -0.31242388 0.15187815 -0.34439498 0.1797285 -0.02376848 -0.3965256
0.06492543 0.16142903 -0.17848866 0.5108244 -0.054038554 0.8701413 0.17559564 0.17706251
-0.23520637 0.12651959 0.08253111 -0.08847434 -0.22711886 -0.21109591 -0.16727644 -0.20582856
-0.19659726 0.14713036 -0.27241868 0.22595704 -0.55582494 0.38451454 -0.7141708 0.64412594
-0.1888511 0.03170802 0.08954182 0.12103434 0.24721442 0.25908706 0.3436522 0.80770737
-0.18593523 0.19815044 -0.009902055 -0.25023964 -0.1808843 -0.006868179 -0.306795 0.019795982
0.083346255 0.14121677 -0.419867 -0.007824911 -0.26799217 -0.186881 -0.022628568 -0.15217099
-0.12473837 -0.14009982 0.2647409 0.6964585 0.03907317 0.36111182 -0.065245345 -0.41360065
-0.1814298 -0.7634585 0.4331517 0.34192628 0.23186378 0.28161103 -0.13255894 -0.02863718
-0.27865642 -0.29968798 0.18506807 0.36019236 -0.24526206 0.122651964 -0.5757228 -0.4101117
-0.44285706 -0.4470756 0.06740733 0.062499218 -0.041596696 0.085407645 0.3058937 0.02538639
0.65968144 0.21115789 -0.032262437 -0.04354042 -0.14178647 -0.060632963 0.28507012 0.13170539
0.6771612 0.6293361 0.11811584 0.18438366 -0.14261658 0.36622134 -0.06316421 0.7061132
-0.0596602 0.6081756 -0.13338429 0.26703835 -0.09283849 -0.31767613 0.23718594 -0.02222314
0.23885605 -0.27398938 0.1041378 -0.5720781 -0.12302489 -0.400994 0.02360364 -0.10037359
0.29359347 0.013118704 0.34792292 0.11874378 -0.16492651 -0.44940266 0.020969586 -0.14445889
0.03185291 0.011420368 -0.47654936 0.27379102 -0.3703563 -0.55186546 0.21911637 -0.12006184
0.1100216 0.361426 -0.26628336 0.63642275 0.08287656 -0.08770115 0.30010277 -0.20583393
00000000: 9c70 933d 29c6 8cbd dd73 4c3c d9e9 e93e
00000010: 1e0f 02be 5ad5 2c3e 33bd 5ebd bc63 acbc
00000020: ff45 05be 25fa 2abe 7d7a b43d 9b22 0e3f
00000030: f17a 583e 9dc5 303d 3465 2dbe 8d0b 1abf
00000040: 951c 4dbe b99c 5bbf f7ef 093e 03e2 8f3e
00000050: 7010 5e3e bf10 2e3d e6c1 1c3f dccb 9d3e
00000060: 9e8c 153f fa6e 6a3e 87cc b5bd 942a c63e
00000070: d365 74be d5b7 b53d 9f4b 5cbe 046b 5f3d
00000080: bb50 70be eec1 08be c50b bcbd f85d a6bd
00000090: 317d bbbe 1f42 f2bc cf4e b4be 1ae2 ac3e
000000a0: 041d b6be e91f fe3d 38c7 3c3d e1b9 c2bd
000000b0: 8e94 033f 5413 2ebe a449 ec3d 6a40 52bd
000000c0: d766 10be 5ae5 84be 3b62 27be 4b4f e0be
000000d0: bcee 9c3d 9a19 b53e 843f c8bd 0626 953d
000000e0: 0010 59be c25b e43e 708d ecbe e393 0d3f
000000f0: f26e 813d e28f a43e 9c2e 803c eca5 003f
00000100: cb8d 63bd e5c5 583e bbd2 d2bd 6f69 7b3e
00000110: ce3c 803e 2a57 bf3e 30e4 353e 9c52 bc3a
00000120: 8458 333f 395f 60be cd6e a83f a658 d1be
00000130: ef24 97bd 546c a93e 6b78 8b3c 7d27 95be
00000140: 59ca eb3e 1b22 e1be 90ee 573f 79c6 0bbf
00000150: 64f1 eb3d f2dd 04be af07 8fbe 554a 1c3f
00000160: e822 a5bd a2b1 1a3f b3af 2abe 7a85 84bc
00000170: b7b4 d7bd 6517 01bf 483b 893e 6f17 9cbc
00000180: e5c5 3c3e b1e9 9dbd bb97 20bc 4b09 73be
00000190: f9a9 2a3e ee6c aabe 2550 263e 5490 723c
000001a0: 270e d9bd 077d efbe 3f9d 4b3e e51b 24be
000001b0: ca1f 643e 7a7e 4dbe 6b26 4a3e 8478 80be
000001c0: 8a73 513e 617d 1dbd 06f6 9fbe f285 1b3e
000001d0: 8a54 b0be bf0a 383e 1eb6 c2bc 6705 cbbe
000001e0: a0f7 843d a74d 253e bbc5 36be 63c5 023f
000001f0: 8857 5dbd 95c1 5e3f 58cf 333e e04f 353e
00000200: f0d9 70be 5a8e 013e 1206 a93d 0932 b5bd
00000210: d991 68be 8729 58be 844a 2bbe b9c4 52be
00000220: cb50 49be 57a9 163e 767a 8bbe 4861 673e
00000230: 8b4a 0ebf 17df c43e e6d3 36bf 70e5 243f
00000240: 2f62 41be 45e0 013d b461 b73d dae0 f73d
00000250: c725 7d3e 0fa7 843e 2ef3 af3e e9c5 4e3f
00000260: ce65 3ebe f3e7 4a3e 3b3c 22bc 691f 80be
00000270: bc39 39be 760e e1bb 3c14 9dbe 2f2b a23c
00000280: 71b1 aa3d 219b 103e cff8 d6be 0e34 00bc
00000290: 4536 89be bc5d 3fbe 8c5f b9bc b6d2 1bbe
000002a0: d576 ffbd 5476 0fbe 1f8c 873e 1b4b 323f
000002b0: 300b 203d a6e3 b83e 5a9f 85bd 77c3 d3be
000002c0: bcc8 39be 0472 43bf 0fc6 dd3e f610 af3e
000002d0: b36d 6d3e 522f 903e 88bd 07be 8598 eabc
000002e0: 0eac 8ebe b470 99be 7c82 3d3e 226b b83e
000002f0: fa25 7bbe f430 fb3d 9262 13bf 29fa d1be
00000300: 29be e2be 18e7 e4be db0c 8a3d 2eff 7f3d
00000310: 4c61 2abd 34ea ae3d 199e 9c3e 1ef7 cf3c
00000320: e2e0 283f c639 583e 9e25 04bd 7057 32bd
00000330: 7930 11be 455a 78bd b6f4 913e c7dd 063e
00000340: 705a 2d3f 2c1c 213f b8e6 f13d 12cf 3c3e
00000350: 150a 12be 5d81 bb3e 3d5c 81bd d6c3 343f
00000360: 415e 74bd 65b1 1b3f e495 08be 40b9 883e
00000370: 1b22 bebd 72a6 a2be dfe0 723e 4d0d b6bc
00000380: ae96 743e 5648 8cbe 3346 d53d b673 12bf
00000390: 79f4 fbbd 164f cdbe 6c5c c13c ab90 cdbd
000003a0: e251 963e d5ef 563c f422 b23e f02f f33d
000003b0: 7fe2 28be 1b18 e6be 69c8 ab3c 08ed 13be
000003c0: 3278 023d 7f1c 3b3c 47fe f3be 562e 8c3e
000003d0: 579f bdbe 0e47 0dbf 0b60 603e fbe2 f5bd
000003e0: 0153 e13d d40c b93e 4b56 88be 9aec 223f
000003f0: 30bb a93d a99c b3bd 12a7 993e 21c6 52be
